data/logs/init_weight_GRU_embedding.npy (npy, 1104 bytes, 1 tensors)

array f4 [2, 128]
1.0977472 -0.35952562 1.0835112 1.3357494 -0.6760634 -0.026443832 -0.8028107 -1.4918872
0.7531964 -0.17188054 -1.102905 -0.80026 -0.896463 -0.6314339 1.4859836 -0.6754693
1.5087252 -2.1762831 -3.3678484 -1.4049222 0.089620754 -0.24272323 1.2996503 -0.7205896
0.25402182 1.8874809 -1.6220993 0.5317993 -1.251816 -1.4321423 -0.9628635 -0.08221609
0.5827616 2.765765 0.628268 -1.1142108 -0.7182634 2.0286756 -0.33933574 0.7998865
1.5757332 1.2910824 0.15186422 -1.3025796 1.3668238 -0.88238937 0.00051588536 -0.35894427
0.15194014 1.2576087 -1.2343787 0.79354423 1.306706 1.2079253 -1.4779303 -0.5272618
-0.20686868 1.1976769 -1.4767785 1.2104799 1.4469287 0.42637748 2.0135903 0.121897995
0.45664197 -1.3977079 0.9313869 0.31891713 1.1042912 0.7512205 -0.5345925 1.8459646
-1.008452 -1.4733375 -0.9182616 -0.1843648 0.52360296 -1.1018622 1.3688879 -0.38179126
-0.3593242 0.79711497 0.83113736 0.06860621 0.5351362 0.019495882 -1.3852054 0.25232917
1.5628511 0.6090407 1.2562226 -1.769431 -0.29848835 1.6753124 3.1471267 -0.22453381
-1.1435735 -1.5846603 -2.2433891 1.5751002 -0.3715108 0.044995975 -0.15607789 -2.0117657
0.2962025 -1.0101475 -0.26008862 0.8451037 0.29571956 1.1241388 -0.39377338 0.11603475
-1.4862379 1.5069858 0.080799475 -0.062264554 0.117938295 0.66891694 0.1925757 1.4986825
0.7936049 -0.7189841 -0.51513624 1.4204051 0.46110347 2.0427544 -0.1920741 -0.019294517
0.8525355 0.7033363 -0.0373954 0.07983779 -1.0316786 -0.3146445 1.0339786 -0.60218835
0.16707759 0.96541756 1.671795 -0.7030248 0.8196155 -0.77134037 1.0845392 -1.7478102
0.9964638 -0.7648234 -0.77507156 -0.0632184 -1.449662 -0.6940818 -0.19349226 0.38036636
-0.5824185 -1.1142548 1.1458801 -0.08293936 2.3691995 1.7262485 -0.17151846 2.7293139
0.1417459 -1.0046567 0.59448946 -0.35471562 -0.31160453 -0.8370372 0.13862655 -1.004836
-0.38640204 -1.4228685 0.5060422 -0.98904926 -0.5092034 0.13541833 0.69088995 -0.28613463
-0.80720615 0.35033444 0.5791971 -1.3804133 -0.1748342 1.2761704 -0.7461903 -0.5191848
-1.2341644 0.5972128 0.27627945 0.3029172 -1.082352 -1.74557 -0.26575714 -0.06425072
1.1461631 -0.50391054 -1.4337268 0.7769109 -0.5650959 0.36467943 0.97686845 1.0355012
-1.435397 -1.3870668 -0.7698025 -0.94381446 -0.006576156 1.0482408 0.07204473 0.6056875
0.8411582 -0.15799615 -1.2052131 -0.915167 -0.20620848 1.972398 -0.6269451 1.3417916
0.5976124 0.75599563 0.67596954 0.61013424 -0.4594493 -1.165248 1.0271139 0.19326524
-0.6478316 0.3835721 -0.14929219 -1.078671 0.2281796 -0.117650315 -0.56917614 -0.06268626
-0.68089056 0.09551425 -0.120340995 -0.8094214 -1.5392008 0.37564808 -0.11432188 -1.16956
-0.7129589 -0.12686542 2.733008 -0.88689685 0.30976236 0.76841664 -1.386913 0.79068065
0.79528457 -1.1858978 -0.5896436 1.152171 0.30739444 -0.72373116 0.17333885 0.16362774
00000000: fb82 8c3f be13 b8be 7fb0 8a3f d6f9 aa3f
00000010: 7e12 2dbf bca0 d8bc 0185 4dbf 29f6 bebf
00000020: 7bd1 403f 7401 30be fe2b 8dbf d7dd 4cbf
00000030: 997e 65bf a7a5 21bf b634 be3f 8eeb 2cbf
00000040: e81d c13f 3948 0bc0 d48a 57c0 7ed4 b3bf
00000050: 168b b73d 708c 78be f15a a63f 8f78 38bf
00000060: 260f 823e f998 f13f f3a0 cfbf 0024 083f
00000070: 823b a0bf 7050 b7bf 397e 76bf e960 a8bd
00000080: dd2f 153f 4b02 3140 2cd6 203f 769e 8ebf
00000090: 1ce0 37bf d2d5 0140 6abd adbe 5dc5 4c3f
000000a0: a0b1 c93f 3042 a53f 4b82 1b3e eeba a6bf
000000b0: 15f4 ae3f 45e4 61bf 7b3c 073a 8bc7 b7be
000000c0: 3296 1b3e 52f9 a03f 1f00 9ebf b725 4b3f
000000d0: 2442 a73f 4c9d 9a3f d22c bdbf a1fa 06bf
000000e0: 62d5 53be 7a4d 993f 1407 bdbf 01f1 9a3f
000000f0: f634 b93f 264e da3e aade 0040 a8a5 f93d
00000100: facc e93e 18e8 b2bf 5f6f 6e3f 1b49 a33e
00000110: 6a59 8d3f fd4f 403f 0edb 08bf 9148 ec3f
00000120: f514 81bf 5396 bcbf 3113 6bbf 20ca 3cbe
00000130: d80a 063f d209 8dbf b837 af3f 257a c3be
00000140: 57f9 b7be ba0f 4c3f 6bc5 543f 6a81 8c3d
00000150: b0fe 083f d4b5 9f3c 694e b1bf 4a31 813e
00000160: 810b c83f 17ea 1b3f e7cb a03f b77c e2bf
00000170: 77d3 98be a370 d63f 866a 4940 31ec 65be
00000180: 9e60 92bf 26d6 cabf b093 0fc0 e29c c93f
00000190: aa36 bebe b34d 383d e2d2 1fbe c5c0 00c0
000001a0: dba7 973e 834c 81bf 562a 85be b758 583f
000001b0: 8e68 973e c8e3 8f3f aa9c c9be a1a3 ed3d
000001c0: 0b3d bebf e9e4 c03f 327a a53d 1e09 7fbd
000001d0: a289 f13d 243e 2b3f 9032 453e d4d4 bf3f
000001e0: b129 4b3f 580f 38bf f8df 03bf d6cf b53f
000001f0: c115 ec3e 7dbc 0240 13af 44be 890f 9ebc
00000200: c43f 5a3f d90d 343f eb2b 19bd ff81 a33d
00000210: 0b0e 84bf 1519 a1be 6959 843f 0429 1abf
00000220: 6316 2b3e 9b25 773f 61fd d53f 6ff9 33bf
00000230: 52d2 513f 9076 45bf 2ed2 8a3f 3fb8 dfbf
00000240: 4018 7f3f 77cb 43bf 176b 46bf a678 81bd
00000250: 868e b9bf 58af 31bf d622 46be 61bf c23e
00000260: 6119 15bf e79f 8ebf 33ac 923f 1cdc a9bd
00000270: f7a0 1740 b6f5 dc3f 89a2 2fbe 14ad 2e40
00000280: d625 113e 9798 80bf 7630 183f 499d b5be
00000290: a18a 9fbe 1248 56bf 1ef4 0d3e 779e 80bf
000002a0: 7dd6 c5be 8e20 b6bf fb8b 013f 5532 7dbf
000002b0: 275b 02bf 1aab 0a3e 2ade 303f 3d80 92be
000002c0: 10a5 4ebf 095f b33e 4346 143f 62b1 b0bf
000002d0: bd07 33be 8d59 a33f 5406 3fbf 4ce9 04bf
000002e0: 19f9 9dbf f0e2 183f 8074 8d3e f717 9b3e
000002f0: 838a 8abf d66e dfbf 5211 88be e295 83bd
00000300: 79b5 923f 4800 01bf 5c84 b7bf a2e3 463f
00000310: 20aa 10bf 43b7 ba3e 0d14 7a3f 4e8b 843f
00000320: 17bb b7bf 688b b1bf c711 45bf d39d 71bf
00000330: cb7c d7bb c12c 863f 308c 933d 560e 1b3f
00000340: 2556 573f bec9 21be 6c44 9abf 6248 6abf
00000350: 5128 53be 8a77 fc3f 797f 20bf d4bf ab3f
00000360: 20fd 183f ee88 413f 570c 2d3f c231 1c3f
00000370: f03c ebbe d926 95bf 7878 833f 53e7 453e
00000380: 4bd8 25bf 9063 c43e 0de0 18be e411 8abf
00000390: eaa7 693e a6f2 f0bd 87b5 11bf a761 80bd
000003a0: d84e 2ebf fa9c c33d 5775 f6bd 3e36 4fbf
000003b0: 8804 c5bf f254 c03e 9721 eabd 24b4 95bf
000003c0: 7984 36bf 02e9 01be 9ae9 2e40 ac0b 63bf
000003d0: 2c99 9e3e f4b6 443f 5d86 b1bf 0c6a 4a3f
000003e0: c597 4b3f 80cb 97bf e2f2 16bf 577a 933f
000003f0: ce62 9d3e 7246 39bf bd7f 313e 088e 273e
