data/logs/init_weight_GRU_layer_2_w_hh.npy (npy, 32848 bytes, 1 tensors)

array f4 [16, 512]
00000000: ac7f 91bc 7693 3fbc 1a96 6dbd 2a03 ccbd
00000010: 12e6 813c c27c c93d 6d28 0bbd 10b3 f0bd
00000020: d272 27be 6c14 8f3c 5712 67bc 6e34 a7bd
00000030: da2d 093e d414 8c3e db6d d43c 6d68 133e
00000040: 010a 433d 7a08 84bd 7c5f 56be 5261 cb3c
00000050: b07c 5c39 7eff 3bbd d8c3 14be 86f9 20be
00000060: aeaa 963d 63d5 05be 880f 0e3d 518b 94be
00000070: 0964 5f3c 729d 02be 3825 e7bd 4fe1 17be
00000080: 5011 b8bd e52a e0bd 4867 973b 6000 bb3b
00000090: 603a b33b 5b32 9c3d 8548 ee3d 9646 3b3d
000000a0: 9c8d ed3b 7208 483c f13a a2bd 72b3 57be
000000b0: 1194 3abe 0228 e73d 9a3e 9ebd d97f 59be
000000c0: dce9 e83c db71 9cbd 05de 7bbd 593c 053e
000000d0: db89 cd3b cb45 bfbd b0e4 c6bd f28b 653d
000000e0: df78 a93d 9228 0ebd 796d d43d 503a 23bd
000000f0: c23d 8dbc 748b 7cbe b29c 3e3e 3dc8 e7bc
00000100: c9c1 a1bd de5d a63c adb9 b4b9 4900 da3c
00000110: b06c 03be d231 453d 2438 f03c 2f41 233d
00000120: 9cb3 cebd d3e2 ca3d 50f6 9b3c 2f00 413b
00000130: 0d38 8c3d 42c4 58bd 6384 713d 6aff 3a3e
00000140: 9e58 88bd 2527 593d 4b59 6cbb 081b a63d
00000150: a0e8 23be a216 2a3e adbd 81bd 3121 343e
00000160: 6137 ae3c 1116 2b3e 093e afbd 469e 8bbc
00000170: 54dd cb3b b224 9b3d b4fa a93c b3c1 2cbc
00000180: 314c 573d 2ead f3bd 6535 6e3b e8db 7ebd
00000190: e464 73bd 4a1c 693d 7dc5 73be ead9 a8bd
000001a0: 1ec1 503b 2f96 c3bc 36dc 31bd 9f61 f6bd
000001b0: 6b85 723e 2254 c8bd 0f90 943d b945 3c3e
000001c0: 0606 933d f72d 943c b0fe 0c3d 8102 d4bd
000001d0: cb0a 41be 6537 553e 52b6 ef3c 52fb bcbe
000001e0: 6e8e 923d eb48 213e 93a4 bfbd f771 9d3d
000001f0: 52f5 753e 1716 673e 9299 babc 84b6 a43d
00000200: c410 d9bd 665e a53c 714a 8ebc aa00 853d
00000210: 36c2 4abc 4c3a 53be 7f50 253d d424 d3bd
00000220: aa91 f03c db9b 683d 1296 c6bc de40 3ebc
00000230: c727 533d 268d 8b3d 7f73 16bd 0ebb 2cbd
00000240: 7dfa debd 1357 d9bd 8195 2c3d 7779 6abc
00000250: 3161 333d 4925 1dbd 1d08 1e3e 32e7 7cbd
00000260: 5282 c1bd 0490 62be a79a 7c3c c49a 973d
00000270: d779 0bbe 6e5f 6dbd 43d6 d7bd 98b7 843d
00000280: 03e2 a83d 231a c03c 6552 44bd 320a afbc
00000290: c23c 62bd e195 a0bd c423 83bd eba2 dc3d
000002a0: bb3f 333c 6f18 343e 9b43 813d fbd0 e93c
000002b0: ac5b 14bd fa86 35bd c58a 32bd c2d5 193e
000002c0: 8c98 cdbc 3fb0 5abe 1fab c43d 485c 4ebd
000002d0: 2e79 0e3e 8063 193e 5fb9 77bd 1979 bc3d
000002e0: f9e5 703d 75c3 603d 4a65 8d3e 6d85 2abe
000002f0: abdf 82ba 51cf 103d fdd5 713d a0ff 35bd
00000300: 7b0a e9bd a22e 013e 7ebf bebd 37b9 043e
00000310: 4139 7f3d 3431 dfbb 3493 2cbd f083 623d
00000320: fb55 5a39 7ef6 a83c b2b0 493e 9a16 103e
00000330: c791 503d 0380 26bd b26a b4bd d5e0 8b3d
00000340: 65a0 9b3d 64ad 583d 68f6 a63c d9c6 bb3d
00000350: 3e8e c63d 5c5b 433e d946 b7bd e046 acbd
00000360: b4f6 ee3d e3c1 d7bd 0c18 04bd 7d53 a93c
00000370: 43ea 06be aa77 0bbe 1b3f dbbd 6b98 643e
00000380: 4a25 f43d b9eb 863d c01c 0cbe 809a f33d
00000390: bc6a 36be a140 81bd f7f8 0bbd dfee 333e
000003a0: 21f9 eebd 0fa2 cfbc 1667 6fbd 2e03 a23d
000003b0: 45ff 0ebc 8381 a33d 6943 18bc 1475 1b3d
000003c0: 5f3b 693d fe36 98bd d92e 80bd 7595 25be
000003d0: 8168 3a3c 84d1 b9bc 72e9 3d3e 343a 793d
000003e0: cff3 023d f2e9 acbd 2658 8b3e 3581 b1bd
000003f0: a5d4 a73d 159c eebd a9d6 8fbd f651 bc3d
-0.017761074 -0.011692872 -0.058004476 -0.09961541 0.015856776 0.09838249 -0.0339741 -0.117529035
-0.16352394 0.017465793 -0.014103494 -0.08164297 0.13396397 0.2735964 0.02593129 0.14395304
0.047616962 -0.06446929 -0.20934862 0.02482668 0.00021027285 -0.045897953 -0.14527833 -0.15720186
0.07356773 -0.13069682 0.03468278 -0.2901254 0.01363469 -0.12755373 -0.11286396 -0.14832042
-0.08987677 -0.109456815 0.0046204664 0.005706832 0.0054696053 0.07626792 0.11634926 0.045721613
0.007249547 0.012209045 -0.079213984 -0.21064547 -0.18220545 0.11286928 -0.07726784 -0.21240176
0.028431825 -0.07638904 -0.06149103 0.13011302 0.006272537 -0.09339484 -0.097115874 0.056041665
0.082750075 -0.03470666 0.10372443 -0.039850533 -0.017241362 -0.24662572 0.18614462 -0.028293723
-0.0789829 0.020308431 -0.00034470615 0.026611464 -0.1283443 0.048143215 0.029323645 0.039857086
-0.100928515 0.099065445 0.01903835 0.0029449572 0.06846628 -0.05292154 0.058964144 0.18261495
-0.066575274 0.053015847 -0.0036063965 0.081106246 -0.16006708 0.16610196 -0.06335006 0.17590787
0.021266641 0.16707636 -0.08556754 -0.017043244 0.0062214527 0.075753585 0.020749427 -0.010544228
0.052562896 -0.11898266 0.0036347744 -0.062221438 -0.05942239 0.056911744 -0.23805805 -0.08244689
0.0031853388 -0.023875324 -0.0434229 -0.120303385 0.23683707 -0.09781672 0.072540395 0.18385972
0.07178883 0.018088324 0.034422576 -0.1035204 -0.18851773 0.20821913 0.029261742 -0.36910492
0.071560726 0.15750472 -0.09357562 0.07687753 0.24019364 0.2256702 -0.022778306 0.080426246
-0.10598901 0.020186614 -0.01736948 0.06494267 -0.012375405 -0.20627707 0.04035997 -0.10309759
0.029366333 0.05678926 -0.024241481 -0.011612145 0.051551607 0.06814031 -0.03673124 -0.042170577
-0.108876206 -0.10612311 0.042134766 -0.014311186 0.04379386 -0.038365636 0.15432782 -0.061743923
-0.09448685 -0.2212525 0.015417731 0.07402566 -0.13620697 -0.057952337 -0.10538914 0.0648033
0.08246233 0.023449963 -0.04793014 -0.021367166 -0.055233724 -0.07841087 -0.06403306 0.10773262
0.0109404875 0.17587446 0.06311723 0.028542032 -0.036220238 -0.044318177 -0.043589372 0.15022948
-0.025097154 -0.21356295 0.09602951 -0.050380975 0.13913414 0.14979362 -0.060479518 0.09202785
0.05881307 0.054873902 0.2761634 -0.1665246 -0.0009984871 0.035353962 0.059041966 -0.044433236
-0.11378952 0.12615445 -0.09313868 0.12961279 0.06231046 -0.0068112854 -0.04213257 0.055301607
0.0002082213 0.02062535 0.1969631 0.14071122 0.050920274 -0.040649425 -0.08809413 0.06829993
0.07598952 0.052899733 0.020381168 0.091687866 0.09695099 0.1907782 -0.0894906 -0.08411956
0.11668149 -0.10535028 -0.032249495 0.020669693 -0.13175301 -0.13619867 -0.10705396 0.22323768
0.11921175 0.06587929 -0.13682842 0.11894703 -0.17814153 -0.06311155 -0.03417298 0.17571591
-0.11668611 -0.02534583 -0.05844792 0.07910763 -0.008727853 0.07983687 -0.009293416 0.03795345
0.056941386 -0.07432364 -0.062589355 -0.16170295 0.011377455 -0.022682913 0.18546084 0.060846522
0.031970795 -0.08443059 0.2721569 -0.086672224 0.081948556 -0.11650864 -0.07023365 0.0919532
