data/logs/init_weight_GRU_layer_2_b_hh.npy (npy, 6224 bytes, 1 tensors)

array f4 [1536]
0	0x3d50095a	0.05079017
1	0x3ca16b7e	0.019704577
2	0xbcb99d72	-0.022658084
3	0x3d12517c	0.03572224
4	0x3d0e1c38	0.03469488
5	0x3d3166a9	0.043310795
6	0x3c298ad0	0.010348037
7	0xbdaf1777	-0.085493974
8	0xbb23dac3	-0.0025002218
9	0x3d99609c	0.0748913
10	0x3d137cb3	0.036007594
11	0x3db3f139	0.08786244
12	0xb9567465	-0.0002045199
13	0x3d2bfecd	0.041991044
14	0x3d3d37b9	0.04619572
15	0x3d284f5e	0.041091315
16	0xbc9282e7	-0.017884685
17	0xb962f72f	-0.00021645123
18	0x3c59a4d2	0.013283925
19	0x3d0ccb30	0.034373462
20	0x3d134e38	0.035963267
21	0xbc127d27	-0.008940971
22	0xbd677e38	-0.056516856
23	0x3d7717da	0.06032548
24	0x3d93ac77	0.072106294
25	0xbd292fbd	-0.041305292
26	0x3dbd7713	0.09251227
27	0x3dce50a9	0.100739785
28	0xbd8ded0a	-0.06929977
29	0x3c4f02dc	0.012634959
30	0xbc02b4f8	-0.007977717
31	0xbd01837a	-0.031619526
32	0x3d29850d	0.041386653
33	0x3d1c1dc9	0.038114343
34	0x3d74de05	0.059782047
35	0xbca9ba2d	-0.020718658
36	0xbb95a8c7	-0.004567239
37	0x3d4155a7	0.047200825
38	0x3cae2b6d	0.021260941
39	0x3d500456	0.050785385
40	0x3b724344	0.0036966363
41	0xbdb4bad1	-0.08824695
42	0xbc827dbd	-0.015929097
43	0x3d00a184	0.031404033
44	0x3c6f6c88	0.014613278
45	0x3cfe7053	0.03105942
46	0x3d3fd151	0.04683048
47	0xbd0e7a5e	-0.034784667
48	0x3d27c7b2	0.04096193
49	0x3ceb1a51	0.028699072
50	0xbd0afbd9	-0.033931587
51	0x3d970868	0.0737465
52	0xbcd507b5	-0.026004652
53	0xbd03276a	-0.03202001
54	0x3c14f599	0.009091758
55	0x3d85a287	0.0652514
56	0x3d49e847	0.049293783
57	0xbda41003	-0.080108665
58	0x3cbf132e	0.023324575
59	0xbc57974f	-0.013158633
60	0xbcc8ced7	-0.024512691
61	0x3d3dc8d8	0.046334118
62	0x3bdf8528	0.0068212934
63	0xbc8cef21	-0.01720387
64	0x3d2337c0	0.03984809
65	0xbca808af	-0.020511953
66	0xbd00e4ba	-0.03146813
67	0x3cb21583	0.021738773
68	0xbb5b8daf	-0.0033501198
69	0x3d822259	0.063542075
70	0x3c467102	0.012111904
71	0x3da6bdc5	0.081416644
72	0x3d133406	0.035938285
73	0x3d8c49f4	0.06850043
74	0x3d8bdbb4	0.068290144
75	0x3c9d944f	0.019235758
76	0xbd9bc02d	-0.07605014
77	0xbda4d37a	-0.080481485
78	0x3d1581a4	0.036500588
79	0xbc1e98db	-0.009679998
80	0xbcef515c	-0.0292136
81	0x3bff68a8	0.0077944584
82	0x3d8642a2	0.06555678
83	0x3d2822d0	0.041048825
84	0xbb24720f	-0.0025092398
85	0x3c17b38d	0.009259117
86	0xbd19c9a7	-0.037545826
87	0xbd35588f	-0.04427391
88	0x3da372be	0.0798087
89	0xbd6ee482	-0.05832339
90	0xbc951784	-0.01819969
91	0xbc4a53ff	-0.012349128
92	0x3d86ff31	0.06591643
93	0x3b042658	0.0020164456
94	0x3d8249c5	0.06361727
95	0xbd1349cc	-0.03595905
96	0x3d871fdf	0.06597876
97	0x3c80c78a	0.015720148
98	0x3b9ee191	0.004848667
99	0x3d60d7d9	0.05489335
100	0xbc246969	-0.010034897
101	0x3ae3600b	0.0017347349
102	0xbab3c5b3	-0.0013715535
103	0x3c535989	0.012899765
104	0xbcee34d5	-0.029077927
105	0xbd31dcc4	-0.04342343
106	0xbd5dc25d	-0.054140437
107	0x3d444e89	0.04792646
108	0x3d8b36a7	0.067975335
109	0x3d8828af	0.06648385
110	0x3cbd9178	0.023140654
111	0x3d446a2d	0.04795282
112	0xbc966fd0	-0.018363863
113	0xbc7fc242	-0.0156102795
114	0x3c311a7c	0.010809537
115	0x3dc2ad6b	0.09505733
116	0x3d36797a	0.044549443
117	0x3dcd16b9	0.100141
118	0xbd0ca820	-0.034340024
119	0x3dbedc43	0.09319355
120	0xbd2098f6	-0.039208375
121	0xbc1b3b0e	-0.009474529
122	0xbc88a150	-0.016678482
123	0x3cf90256	0.030396622
124	0x3d735c7b	0.059414368
125	0x3b555336	0.0032550818
126	0x3d3037af	0.043021854
127	0x3c483478	0.012219541
128	0xbd09fed7	-0.0336903
129	0xbcdaf457	-0.026727838
130	0xb9b0d102	-0.0003372506
131	0xbd1f5c5b	-0.038906436
132	0xbb52b9e8	-0.0032154266
133	0xbcbdfa4d	-0.023190642
134	0xbd40d727	-0.047080185
135	0x3d050027	0.03247085
136	0x3dcbac37	0.09944957
137	0xbc1fd957	-0.009756408
138	0x3d111581	0.0354209
139	0x3d09886e	0.033577375
140	0x3d68afcf	0.05680829
141	0x3c1f0077	0.009704701
142	0x3d2d69bd	0.042337168
143	0x3c2987b7	0.010347298
144	0x3bb40c15	0.0054946044
145	0x3d9c13f2	0.07620992
146	0x3c95d383	0.018289333
147	0x3d39ed7f	0.04539251
148	0x3d1f6427	0.038913872
149	0x3d018de4	0.031629458
150	0x3d3a94df	0.04555213
151	0xbd09dbcb	-0.033656877
152	0x3db98dcc	0.09060249
153	0xbd115084	-0.035477176
154	0xbd6bf1f3	-0.057603788
155	0x3c662d1f	0.014048844
156	0x3d1bd297	0.03804263
157	0xbcb98051	-0.022644194
158	0x3b2eded0	0.00266831
159	0x3c829513	0.015940225
160	0xbd224484	-0.039616123
161	0x3cd839fb	0.026394835
162	0xbca9fc19	-0.020750092
163	0xbd178427	-0.036991265
164	0xbcd4f4e2	-0.025995675
165	0x3d21342a	0.03935639
166	0x3c05e451	0.008172111
167	0x3cdba93a	0.026814092
168	0xbd1d2f2e	-0.038375072
169	0xbd2f7e36	-0.042844974
170	0x3d147794	0.03624685
171	0x3dcf5bd4	0.10124937
172	0x3d08d32d	0.033404518
173	0x3d577676	0.052603208
174	0x3ac678f9	0.0015142254
175	0x3d58cbf9	0.0529289
176	0x3cb39359	0.021920847
177	0x3d3ba557	0.045811977
178	0x3c9c4e5b	0.019080332
179	0x3d3f4fd6	0.046706997
180	0xbd09f972	-0.033685155
181	0x3d0d0bbc	0.03443502
182	0x3cc165ab	0.02360805
183	0xbbf5033e	-0.007477193
184	0x3d1683c2	0.036746748
185	0xbc9a67f6	-0.0188484
186	0x3c1273b8	0.008938722
187	0x3d923d11	0.07140554
188	0x3d061289	0.03273252
189	0x3d41051a	0.047124006
190	0xbd6991c3	-0.057023775
191	0x3d9eb383	0.07749083
192	0x3c210149	0.009826967
193	0x3cd72481	0.026262524
194	0xbd81fa84	-0.0634661
195	0xbc71210a	-0.01471735
196	0xbd4a400d	-0.04937749
197	0xbcdb1985	-0.026745567
198	0x3d618926	0.055062436
199	0x3d1bafad	0.038009334
200	0x3dc0baec	0.094106525
201	0x3d2116e1	0.03932846
202	0x3c97f22c	0.018548094
203	0x3d27ac17	0.040935602
204	0x3c8b22f2	0.016984437
205	0xbcfb5ab0	-0.030682892
206	0xbc5e5155	-0.013569196
207	0xbd4d3966	-0.050103568
208	0xbc0c2a56	-0.008555016
209	0x3cd90bba	0.02649485
210	0x3c498b75	0.012301316
211	0xbbcc30bc	-0.0062313955
212	0xbae6f457	-0.0017620426
213	0x3ba50bfd	0.0050368295
214	0x3d7a1d37	0.061063018
215	0x3c802cfc	0.01564645
216	0x3d4be7f0	0.04978174
217	0x3d97913a	0.07400747
218	0xbb4106aa	-0.0029453435
219	0xbce16a55	-0.027516523
220	0x3c697fc0	0.014251649
221	0x3cd560fa	0.026047219
222	0xbbcd90ce	-0.0062733656
223	0xbd00abcd	-0.031413842
224	0xbd8dc9b1	-0.06923235
225	0xbc2e8ea5	-0.010654126
226	0x3c14be46	0.009078568
227	0x3d4441d5	0.047914345
228	0x3d5a9446	0.05336406
229	0x3c2bf735	0.0104959505
230	0xbc0532de	-0.008129803
231	0xba667b99	-0.0008792221
232	0xbc8317ee	-0.016002622
233	0x3c9b08e5	0.01892514
234	0xbc2987fe	-0.0103473645
235	0x3d0b60c1	0.03402782
236	0x3d22c29c	0.039736375
237	0xbcbe8f71	-0.023261758
238	0x3d9b3c16	0.0757982
239	0x3c9200d1	0.017822655
240	0x3c82d503	0.015970713
241	0x3d1850ac	0.03718631
242	0x3da07507	0.07834821
243	0xbc38886b	-0.011262993
244	0xbb896def	-0.0041940133
245	0xbd067423	-0.0328256
246	0x3d128275	0.035768945
247	0xbd99d1fc	-0.075107545
248	0x3d5ed79e	0.054404847
249	0x3cc2373b	0.023707977
250	0x3cc57f1f	0.024108468
251	0xbd31a927	-0.043374207
252	0xbc50bceb	-0.012740354
253	0x3bfd9db4	0.007739747
254	0xbc9babaa	-0.019002754
255	0x3b1914fb	0.0023358453
