data/logs/init_weight_GRU_layer_2_w_ih.npy (npy, 32848 bytes, 1 tensors)

array f4 [16, 512]
000000 a9 9a 32 3c 66 90 1c be 8e b3 e2 3d 0d e8 87 bc
       0.010901132 -0.15289459 0.110694036 -0.016590143
000010 3f 57 ec bd be c8 35 be ea 12 39 bc 70 c1 e8 3c
       -0.11540078 -0.17752358 -0.011296013 0.02841255
000020 0e 50 49 3d dd b4 1c bc c9 8f 2e be bc 0b ff b9
       0.04914861 -0.009564606 -0.17047037 -0.00048646133
000030 16 0b 7b 3d cc da 22 be 0e 69 7f 3d 6b 0a 5c ba
       0.06128987 -0.15903777 0.062356047 -0.00083938864
000040 dc 3a 39 bd fa 6e e1 bd d3 60 50 3d 6e 6d 87 bd
       -0.04522215 -0.11007495 0.05087359 -0.06612669
000050 40 98 5e 3c 20 7d 1a 3e 81 19 51 3e fb 1a fe bd
       0.013586104 0.15086794 0.20419885 -0.1240749
000060 52 47 74 3e 90 88 a8 bd be 7a 83 bd b9 ba f5 bd
       0.23855332 -0.08229172 -0.064198956 -0.11998505
000070 db 8b 8f bd ba f7 48 bd d1 8a b2 3d fa 33 7c 3d
       -0.07009097 -0.049064375 0.087178834 0.061573006
000080 c6 42 ef bd 31 d6 98 3d 34 ae f0 3c ee 49 6c 3e
       -0.11682658 0.07462729 0.029379942 0.23075077
000090 4e d8 b0 3c 8b 5f 80 3e 3a ef 23 3d 05 40 c1 bb
       0.021587517 0.25072894 0.040023066 -0.0058975243
0000a0 83 57 ce 3d 8c e6 41 3e 98 f7 81 3d c3 24 af 3b
       0.10075285 0.18935603 0.06346053 0.0053449585
0000b0 23 e2 55 3c e3 e8 6f 3d ef ea cb 3d f7 ed a9 bd
       0.0130544035 0.058571707 0.099569194 -0.08297341
0000c0 63 93 21 bd 9b c0 db 3d bb 1e 8f 3b fd 82 37 3d
       -0.0394472 0.10730096 0.004367677 0.044802655
0000d0 d3 88 f9 bd 62 71 98 3c 2a de 93 3b 65 fb 9a bb
       -0.121843 0.018608753 0.004512568 -0.0047296756
0000e0 69 cb b7 bd 59 70 1a be 95 59 30 3e 3e c4 a1 3c
       -0.08974344 -0.1508192 0.17221673 0.019746896
0000f0 f8 dc b4 3d 02 d2 8e bb c6 71 e1 bd 5f 46 d8 3d
       0.08831209 -0.004358531 -0.11008029 0.10560297
000100 b0 bb 88 3c 39 60 55 bd 9a ac 0e bc fa f6 cd 3d
       0.016691059 -0.05209372 -0.008708144 0.10056873
000110 27 ba 97 bc 5c 22 47 bd 2b 18 f2 3d c6 c5 1e 3d
       -0.018521382 -0.048616752 0.11821016 0.03876283
000120 8e d3 21 bb e0 45 67 bd 8a 0c 5b 3a 79 1c 84 3d
       -0.0024692747 -0.056463122 0.00083560555 0.06450743
000130 23 f0 4d 3d bc de 2d 3c 64 9d dc bd 64 11 a2 bd
       0.05027784 0.010612186 -0.107722074 -0.07913473
000140 35 d8 9d 3a a2 76 be bb 3d e5 42 3e 76 38 54 3c
       0.0012042584 -0.005812482 0.1903276 0.012952914
000150 7a 72 d0 3d d7 c0 cc 3c 42 c8 0d 3e 5e 18 85 3d
       0.10178085 0.024994297 0.13845924 0.06498788
000160 45 6c 52 bd ec c1 45 be b5 61 68 3e 16 23 3d 3e
       -0.051372785 -0.19312257 0.22693522 0.18470415
000170 41 0b b9 bb 4a 2d 16 bc 11 cf 0a 3e 9c 1b 22 3e
       -0.0056470935 -0.009166071 0.13555552 0.15830845
000180 db 92 fd bd a0 e3 9e 3d 42 d5 dd 3d e6 cf 3e 3e
       -0.12381526 0.0775826 0.10831691 0.18633994
000190 bb 65 cf bc 77 aa 0e 3c b1 1c 55 3e ea a2 76 3d
       -0.025317064 0.008707634 0.20811726 0.06021396
0001a0 46 f5 69 3b 13 9d ac bd bb 9c c7 bb 04 41 90 3c
       0.0035699173 -0.08428397 -0.006091682 0.017609127
0001b0 05 63 41 3c 64 e8 43 be 59 99 d2 bd 72 a7 0b 3e
       0.011803393 -0.19131619 -0.10283155 0.13638094
0001c0 4f 1f f1 3d 39 b1 5b 3c 13 75 0b bd e1 c8 c0 bc
       0.1177355 0.013408952 -0.034047198 -0.023533287
0001d0 b6 45 22 3e a3 4a 01 be 94 c6 8b 3c e6 53 9a 3d
       0.15846905 -0.12626128 0.017062463 0.075355336
0001e0 80 40 b9 bd b1 5d 40 3d 8e a8 0b 3e 0f 9b 7c bd
       -0.090455055 0.04696435 0.13638517 -0.061671313
0001f0 e7 a6 12 be 64 94 63 3c 1e 08 56 bd 91 24 ac bc
       -0.1432148 0.01389036 -0.052253835 -0.02101353
000200 0a 28 21 be 96 80 03 3b e6 0d fa bd 59 e1 8c 3d
       -0.1573793 0.0020065657 -0.12209682 0.06878919
000210 dc f6 4a 3e 72 58 f8 3d 4a 47 f5 3d d5 ce 1b bd
       0.19820732 0.121262446 0.11976488 -0.038039047
000220 38 10 92 bd e5 75 24 be 4f fa 62 3e ec bb 07 3d
       -0.07132 -0.16060598 0.22165798 0.0331382
000230 9c d6 92 bc 32 71 7d 3d 32 ca ca 3d ac 7c a4 3d
       -0.0179246 0.06187553 0.09901847 0.08031592
000240 d8 6d b7 bc 1e cd 8f 3c a8 64 35 be 63 86 83 bd
       -0.022391245 0.017553862 -0.17714179 -0.064221166
000250 63 dd 45 be f2 3a 30 3e 47 97 c2 bd cd 96 0a bc
       -0.19322734 0.17209986 -0.0950151 -0.008458805
000260 10 da 18 3c 90 76 af 3c 8b 54 be bd 03 d9 8f 3d
       0.009329334 0.02141884 -0.09293469 0.070238136
000270 62 54 cc bc 32 1f db 3c 42 72 bf 3d d9 96 76 bd
       -0.02494258 0.026748274 0.09347965 -0.060202453
000280 8a 2f 87 bd 8c 77 0f be 65 84 06 bc 6a 4b 28 3a
       -0.06600864 -0.14010447 -0.008210276 0.0006419929
000290 6b 91 5a be 4a b1 ae 3d dd 2e 07 be 54 8f 26 3d
       -0.21344535 0.08529909 -0.1320147 0.040664032
0002a0 68 33 20 bd 5e 2e d4 bc 2c 72 27 3c 92 aa 90 3d
       -0.039111525 -0.025901016 0.010220092 0.07063784
0002b0 d5 a1 bf 3d a9 d2 48 be 98 95 4a 3e 9e 2c 0c be
       0.09357039 -0.1961161 0.19783628 -0.13688895
0002c0 b5 f6 04 bd 57 63 3d bd 8e 7a ad 3d bf 00 b3 bd
       -0.03246184 -0.046237316 0.08470641 -0.08740377
0002d0 8e 73 d9 bd ad 69 4e be 75 43 cf bd 01 22 2c 3e
       -0.106177434 -0.201575 -0.10120288 0.16809846
0002e0 ad 49 e4 bd 19 04 dc bb a3 ad 25 3e 01 e9 3d be
       -0.11146865 -0.0067143557 0.16179518 -0.18545915
0002f0 1b 6b 9a 3d c2 b3 b9 bc dd 85 85 3d 7f 19 b5 bc
       0.0753996 -0.022668723 0.06519673 -0.022106884
000300 95 76 dc 3d 7a db e1 3b a1 d9 d4 bc 25 13 5f 3d
       0.10764805 0.0068926187 -0.02598268 0.054461617
000310 2c 75 10 bd 16 5e 98 bd a1 79 e3 bc d2 24 17 bd
       -0.035267994 -0.074398205 -0.027767958 -0.03690035
000320 69 3b 57 3d 06 8e 62 3e 6a fb 3d 3e 71 39 b8 3d
       0.052546892 0.2212449 0.18552938 0.08995331
000330 6f bb 43 3c 7e ed dc 3d 82 1f fb bc ef 53 82 3d
       0.011946543 0.107874855 -0.030654673 0.06363665
000340 3b 66 32 3d 45 1d a4 3d e9 b7 2f be e7 6a ef 3d
       0.043554526 0.08013395 -0.1716 0.11690312
000350 2f ea f6 bd ca bc a0 3c 7e 59 14 3e fe 62 a0 bb
       -0.12056386 0.019621272 0.14487264 -0.0048946133
000360 43 03 a7 bb 31 09 88 bd d3 1f 87 bc 7d 66 2d be
       -0.0050968244 -0.06642378 -0.016494667 -0.16933627
000370 21 4c 33 3d 03 d4 aa bc 82 86 8a 3d ad 9e 08 be
       0.043773774 -0.020853048 0.067639366 -0.1334178
000380 26 12 78 bc 21 5d 3a 3d 27 82 65 3e e3 57 d1 3c
       -0.015141046 0.04549897 0.2241293 0.025554603
000390 23 fb ed bc 41 17 24 3e 7c d2 15 be af 3c 24 bd
       -0.029050415 0.16024496 -0.14631075 -0.040096935
0003a0 08 36 17 be 49 be 2a 3e aa b1 ae 3d f0 bc f0 3d
       -0.14766705 0.1667415 0.085299805 0.11754787
0003b0 08 2f 0b 3c 98 25 16 bd d6 dc a3 3c eb 7a c8 3d
       0.0084951 -0.036656946 0.020002764 0.0978907
0003c0 9f 1d 72 bd f0 6c aa 3c 16 94 05 3d b4 79 03 bd
       -0.05911028 0.020803899 0.03261193 -0.032098487
0003d0 53 07 a9 bd 28 10 75 3d 5d a5 0e 3e f0 8d f2 bd
       -0.0825335 0.05982986 0.13930269 -0.11843479
0003e0 0d e4 09 3e 3c f7 3e 3d 64 48 07 3d b9 1e 10 3e
       0.134659 0.0466225 0.03302802 0.1407422
0003f0 c7 1c 9b 3d f9 60 a1 bd f3 19 3b be 76 3b 50 3d
       0.07573848 -0.07879824 -0.18271618 0.050837956
