data/logs/init_weight_GRU_layer_2_b_ih.npy (npy, 6224 bytes, 1 tensors)

array f4 [1536]
000000 96 61 c2 3d 5d e1 8d 3d b7 3d f8 3c 4e 1d b1 3c
       0.09491269 0.0692775 0.030302865 0.021620419
000010 4f 9d 81 bb f4 c2 15 3c de 45 68 3c 8e 76 81 bd
       -0.00395552 0.009140719 0.014176814 -0.06321441
000020 35 f5 68 bc 2b 92 cf 3c 09 ce 77 3d d0 36 d8 3c
       -0.014218618 0.025338253 0.060499225 0.026393324
000030 66 2e b3 ba da 22 b8 3c 6b 3f 22 bb 23 25 a4 3d
       -0.0013670444 0.022477556 -0.0024757038 0.08014896
000040 56 38 82 bc a6 1a 4e bd fd 94 9f 3c 5d 67 db 3b
       -0.015896004 -0.050318383 0.019480223 0.0066956715
000050 ae 90 d0 3c b2 09 a7 3c 14 8d 71 bd 3a 7c ed 3c
       0.025459614 0.020390365 -0.058972433 0.0289899
000060 91 dd ad 3d d6 d5 9d 3c 98 60 d6 3d bb da d6 3c
       0.08489526 0.019267004 0.104676425 0.026227346
000070 da 50 88 bd a8 99 0c bd b4 33 6b bc f0 5b 69 bc
       -0.06656046 -0.034326226 -0.014355589 -0.014243111
000080 f5 61 76 3d b2 d7 51 3d bb a5 d3 3b 66 f2 b5 bd
       0.060152013 0.051231094 0.0064589656 -0.088841245
000090 7c 42 b5 3c ab 2e 87 bb f3 e2 10 3d 32 88 ac 3c
       0.022126429 -0.0041254363 0.035372686 0.021061037
0000a0 f6 2f eb bc ba fc 8d bd d9 bc 47 3c c6 93 2c bd
       -0.028709393 -0.069329694 0.012191021 -0.042133115
0000b0 79 b8 52 3d 9a b1 83 3d 0d 8f 01 3d a4 6c 68 3c
       0.051445458 0.06430359 0.031630564 0.014186058
0000c0 45 37 55 3d ca d2 78 3b 14 cc 04 bd 29 10 6e 3d
       0.052054662 0.0037967437 -0.032421187 0.05812088
0000d0 0e 37 cd 3c 3a 55 f0 bc 95 24 ab 3d 6e fb 20 3d
       0.025050666 -0.029337514 0.08356587 0.039302282
0000e0 b0 99 33 3c ce 17 a7 bd 29 c1 a1 3d db 32 4b 3c
       0.010961935 -0.08158837 0.078981705 0.012402262
0000f0 36 3c 11 3d 5d 01 8b 3b 99 74 0e 3d 3f 29 3f bc
       0.035457812 0.004242106 0.034779165 -0.011667549
000100 dc db 74 3c e8 a4 83 3c a6 fd 7f 3a 64 f4 a6 bc
       0.014944997 0.016069844 0.00097652746 -0.020380206
000110 89 10 0a 3d bd 0f bf 3d 0f a5 9b bc 63 e9 a7 3c
       0.033707175 0.09329174 -0.018999605 0.02049703
000120 d3 10 4d 3d 5d db 51 bb b1 00 a3 3c 58 31 e1 bc
       0.050064873 -0.003202162 0.01989779 -0.02748935
000130 c7 e2 b3 bd 38 10 9b bd 43 aa bf bc 34 b8 a9 3b
       -0.08783489 -0.07571453 -0.023396617 0.0051794294
000140 5f 76 8f bd a7 c5 70 3d dc 7e 97 3d 37 0b a1 3d
       -0.07004999 0.058782246 0.073972434 0.07863467
000150 ef cb 81 3d 7a 1c dd 3b b0 40 07 bc 5f d4 7e bc
       0.06337725 0.0067477794 -0.008255169 -0.015553563
000160 79 2e d1 3c f6 69 d5 bc bc a8 98 3b 85 79 2d bd
       0.025534855 -0.026051503 0.0046587866 -0.04235222
000170 c6 41 d6 3c 03 1e 06 3d 77 00 ba 3d ff d6 bc 3c
       0.02615441 0.032743465 0.0908212 0.023051737
000180 47 13 3a bc 62 60 14 bc ef bb 48 3c 58 0c e5 bb
       -0.011357135 -0.009056183 0.012251838 -0.006989997
000190 3b 9f 33 bc 46 d8 71 3c d1 c0 7a 3d 1b 07 04 3d
       -0.0109632565 0.014761036 0.06121904 0.03223334
0001a0 c8 8e f0 3b e6 17 2e bc ee e7 72 bd aa 73 f7 3c
       0.0073412396 -0.010625815 -0.059303217 0.03020652
0001b0 25 c2 40 3a c1 3e 29 3d 4f b8 3e 3d b1 be 70 3d
       0.00073531485 0.041319612 0.04656249 0.058775607
0001c0 38 82 46 3d 44 05 0f bb 4d 7e 18 bb b3 25 7b 3d
       0.04846403 -0.0021823207 -0.002326864 0.06131525
0001d0 eb 88 80 3b 50 2a 9b 3d fe 51 c1 3c de 4c 0f 3d
       0.003922572 0.0757643 0.023598667 0.034985416
0001e0 39 a1 d3 bd 54 85 03 3d 34 d7 b9 3c 5c e0 5a bc
       -0.10333485 0.032109573 0.022685625 -0.0133591555
0001f0 f8 22 76 3d 8b bc ce 3c 4e 0b 1e 3d 25 33 de 3c
       0.060091943 0.025236389 0.038585 0.027123997
000200 a2 06 12 3d 20 43 1b bd 75 6b 2d bd ad 90 6b 3b
       0.035650857 -0.037905812 -0.042338807 0.0035944388
000210 a0 1c 62 bc 0a 32 76 3b d0 83 45 bd 16 d1 7a 3c
       -0.01380077 0.0037566447 -0.04822141 0.015308639
000220 54 30 29 3d 11 15 9b bc d6 51 91 3d 95 e3 c8 bc
       0.041305855 -0.018930944 0.07095687 -0.024522582
000230 8f 5f 84 3d 4e 58 96 3d 57 64 24 3d 75 96 80 bc
       0.06463539 0.073410615 0.040134754 -0.015696744
000240 11 0b a6 3b ed db 97 3c 90 a7 b2 bc 17 bf ec 3c
       0.005067237 0.018537486 -0.021808416 0.028899712
000250 68 fe ea 3c 6f da 98 3c 3c aa 6e 3d b5 bd ca bc
       0.028685763 0.018658845 0.058267817 -0.024748662
000260 b3 f6 57 3d 82 9d 1c bd 8f 0b 59 bd 3d 4a 5b 3d
       0.052725505 -0.03823615 -0.05298954 0.053537596
000270 aa 3e 3e 3d 25 98 bb bc 78 22 33 3c 8f 64 3c bc
       0.04644648 -0.022899697 0.010933511 -0.011498584
000280 ed d3 a8 bb b1 c5 84 3d c0 2a b0 bd 24 86 32 bd
       -0.0051522166 0.06483019 -0.08601904 -0.043584958
000290 07 40 7f bd 09 2a 9a 3c 76 b0 3c bc b7 c0 5d bd
       -0.06231692 0.018818872 -0.011516681 -0.054138865
0002a0 aa d2 fe b9 74 5f 24 bd 3e 11 59 3d ef 85 a6 3d
       -0.00048603612 -0.040130094 0.05299496 0.081310146
0002b0 75 a0 0a 3d 5b 36 86 3c 88 09 2b bd 8a 6d 21 3d
       0.03384443 0.01638334 -0.041757137 0.039411105
0002c0 3b cd 1e 3c ba 45 3c 3d cc 13 22 bc d2 ed d9 3d
       0.009692485 0.045964934 -0.009892415 0.10641064
0002d0 94 a1 01 3d 52 78 1f 3d 3a a3 b2 bc 83 19 90 bc
       0.031648234 0.038933106 -0.021806348 -0.01759029
0002e0 b7 f6 a0 bc 62 1b 52 bd 56 39 07 bd bb 2e 85 3d
       -0.019648893 -0.051295646 -0.033013664 0.06503054
0002f0 68 d2 12 bc 05 aa 90 3b b0 f2 bf bc 45 58 b8 3c
       -0.008961298 0.004414799 -0.023431152 0.022503028
000300 3c 8b 51 bd 17 6f 41 3c ae 2e d5 bc d6 95 6f bc
       -0.051158175 0.011806271 -0.026023235 -0.014623126
000310 f5 e6 13 ba 92 7e 41 3d 08 ce 81 bc 10 56 0e 3d
       -0.000564202 0.047239847 -0.015845314 0.034750044
000320 2f 66 c7 3d fd c4 92 3c 3a 41 ed 3c dc 39 3c 3d
       0.09736287 0.017916197 0.028961767 0.045953616
000330 1e ff f2 ba 6c 51 df bc 6a 2c 90 3c 0c 37 b8 bd
       -0.0018539166 -0.027260505 0.017599303 -0.08994874
000340 8b f9 a5 3b db 8f f2 bb 24 6a b3 bc bb 46 9d bd
       0.005065148 -0.007402403 -0.021901198 -0.076795064
000350 6b 20 e8 ba 21 63 aa bc eb ad ef 3c e5 fc 19 bc
       -0.0017709857 -0.020799221 0.029257735 -0.009398674
000360 28 5d 75 3d 01 13 99 3d d0 1c 24 3d 53 5d 6a 3c
       0.059903294 0.07474328 0.04006654 0.014304477
000370 d0 30 c0 bb 13 e5 3f 3c d2 19 4d bd 77 d7 c4 3c
       -0.005865194 0.01171233 -0.050073452 0.024028523
000380 f6 76 ab bd 25 6d 4d 3c 99 53 c2 3b 4a d2 6c bb
       -0.083722994 0.012538229 0.005930376 -0.0036136084
000390 98 99 76 3d f1 b6 f8 ba 44 ba 9b 3c 0c a9 98 b9
       0.060205072 -0.0018975419 0.019009717 -0.0002911765
0003a0 88 32 27 bc fd be 8a 3d 21 19 15 3d 3d ea 95 3d
       -0.010204919 0.067747094 0.036400918 0.07320068
0003b0 0b df 58 3d e6 a8 92 bd 27 0d 5a 3d b2 15 5c 3d
       0.052947085 -0.07161121 0.0532352 0.053731628
0003c0 bd 08 48 bd 5d 35 d0 3c 60 76 69 3d 7f e9 0c bd
       -0.04883646 0.02541607 0.056997657 -0.034402367
0003d0 2d f6 30 bc f2 7d 4e 3d bf bd c6 3c a4 73 8e bd
       -0.01080088 0.05041308 0.0242604 -0.069556504
0003e0 a8 8a a5 3d 22 b1 c5 bc ef ca 9c 3c f8 69 10 3d
       0.08083087 -0.024132315 0.019139735 0.03525731
0003f0 d6 25 6b 3d 7a 74 0f 3d e8 5c a5 bd 42 87 b5 3a
       0.05740913 0.03502319 -0.08074361 0.0013849514
