data/logs/weight_GRU_embedding.npy (npy, 1104 bytes, 1 tensors)

array f4 [2, 128]
000000 ac f9 85 3f f6 e4 e4 be a1 d5 96 3f 95 91 b2 3f
       1.0466819 -0.44705933 1.1783944 1.3950678
000010 7c cb 2b bf 0d fc 92 3c dd 8e 58 bf 5c 8f c7 bf
       -0.6710737 0.017942453 -0.8459299 -1.5590625
000020 7b 58 34 3f 65 06 1b be 52 d8 83 bf b8 0d 54 bf
       0.7044751 -0.15139158 -1.0300391 -0.82833433
000030 d6 49 7a bf 56 7e 39 bf 8a 57 bc 3f c1 0e 34 bf
       -0.97768915 -0.724584 1.4714215 -0.7033501
000040 79 c2 c5 3f 4f db 0d c0 f4 38 60 c0 d7 87 b3 bf
       1.5449973 -2.2165105 -3.5034761 -1.402583
000050 d7 ee 54 3e d7 12 65 be 0a b5 a4 3f 6b ab 31 bf
       0.20794235 -0.22370468 1.2867749 -0.6940219
000060 da 38 8f 3e e8 0d f8 3f 29 b3 dd bf fe fe 0f 3f
       0.27973062 1.9379244 -1.73203 0.5624846
000070 f2 f1 9f bf 09 1f b8 bf 15 ba 7d bf 94 b8 73 bc
       -1.2495711 -1.4384471 -0.99112064 -0.01487555
000080 68 a6 13 3f 5d c7 35 40 a5 00 15 3f c8 6f 89 bf
       0.5767579 2.8402932 0.5820411 -1.0737238
000090 98 32 33 bf 69 e3 05 40 c2 99 79 be ea 87 45 3f
       -0.69999075 2.092005 -0.2437506 0.77160513
0000a0 17 0a c4 3f f8 aa a1 3f 55 eb 1d 3e 76 79 a3 bf
       1.5315579 1.26303 0.15421803 -1.2771442
0000b0 48 8c b3 3f 11 46 70 bf dd 47 88 3b e1 29 b4 be
       1.4027185 -0.9385691 0.0041589574 -0.351882
0000c0 f2 59 ee 3d f5 bb a1 3f 4a 2c a4 bf 78 e1 47 3f
       0.116382495 1.2635485 -1.2826016 0.78078413
0000d0 a0 ba b8 3f 13 1d 9e 3f 2d 83 c5 bf 78 39 0c bf
       1.4431953 1.2352623 -1.5430657 -0.5477519
0000e0 2f 33 52 be 50 e3 9d 3f ac 3d b9 bf 28 5e 9d 3f
       -0.20527337 1.2334995 -1.4471946 1.2294359
0000f0 6d cf c2 3f 0f ff bd 3e fd 86 05 40 d3 60 d7 3d
       1.5219551 0.37108657 2.086364 0.10516515
000100 b0 da c1 3e 22 0b bb bf 8e 5a 71 3f a4 5a c4 3e
       0.37862158 -1.4612772 0.942788 0.38350403
000110 49 56 8f 3f ca 64 3f 3f 59 9d 0c bf c6 3d f7 3f
       1.1198207 0.74763167 -0.54927593 1.9315727
000120 7a db 76 bf 0f 05 cc bf 8f 8b 76 bf 93 00 52 be
       -0.96428645 -1.5939044 -0.963067 -0.20508032
000130 a4 db fc 3e 54 7e 8f bf 4c 56 b3 3f 5d 63 db be
       0.49386322 -1.1210427 1.4010711 -0.42849246
000140 65 62 a9 be c4 1e 59 3f 59 a9 5f 3f 8f 47 7b 3d
       -0.33082882 0.8481257 0.8736778 0.06134754
000150 07 c1 13 3f ec 82 df bc c8 73 be bf e1 ba 9d 3e
       0.5771641 -0.027284108 -1.4879084 0.3080664
000160 71 8a c2 3f 47 6f 0e 3f 50 46 9d 3f d7 f2 e6 bf
       1.5198499 0.55638546 1.2287083 -1.8042859
000170 fc 37 c0 be a8 18 d0 3f 03 3d 50 40 3b d4 1a be
       -0.37542713 1.6257524 3.2537239 -0.15120022
000180 eb bb 8d bf 7e 7a c4 bf b7 a4 14 c0 de 8a d0 3f
       -1.1072973 -1.5349882 -2.3225534 1.6292379
000190 0c ac ba be 31 a3 0c 3e d0 29 21 be 63 12 00 c0
       -0.36459386 0.13734128 -0.15738606 -2.0011222
0001a0 1d 45 a2 3e 9d f5 73 bf 89 30 a4 be 96 87 5c 3f
       0.31693354 -0.9529665 -0.3206828 0.8614439
0001b0 5d f8 be 3e c9 bc 9b 3f d0 c5 a8 be 00 f6 20 3e
       0.3729886 1.2166988 -0.3296342 0.15718842
0001c0 21 99 af bf 61 79 c5 3f 7d f0 d6 3d d7 4e 1d be
       -1.3718606 1.5427667 0.10495088 -0.15362106
0001d0 8f 29 0b 3e 52 fa 18 3f a4 d9 c5 3d 06 97 c1 3f
       0.13590072 0.5975696 0.09660652 1.5124214
0001e0 ce c6 6f 3f ee 9c 3b bf 10 8b 10 bf e3 39 b8 3f
       0.93662727 -0.7328633 -0.5646219 1.4392666
0001f0 ad b9 f0 3e ab 8f 03 40 25 a3 63 be a0 8c 01 bd
       0.4701666 2.0556438 -0.22230203 -0.03162825
000200 23 d7 62 3f 35 f4 3c 3f ac 73 7a bd cd 15 5d 3d
       0.8860952 0.7381013 -0.06114547 0.05397587
000210 60 74 82 bf 27 cb 98 be e5 7e 84 3f 0c 15 0f bf
       -1.0191765 -0.29842493 1.0351225 -0.5589149
000220 b2 c5 33 3e fd 26 80 3f a1 bf d3 3f a4 a5 42 bf
       0.17555884 1.0011898 1.6542856 -0.76034
000230 2a 5f 59 3f d1 04 47 bf 57 66 87 3f a0 f2 e0 bf
       0.84910834 -0.77741724 1.0578107 -1.7574043
000240 e1 e2 82 3f 4b 90 45 bf 37 47 4a bf 5e a6 20 bd
       1.0225488 -0.771733 -0.79014915 -0.03922116
000250 ea 8d b5 bf 6c 67 36 bf 0c d5 8a be 69 c7 ba 3e
       -1.4183934 -0.7125156 -0.27115667 0.36480263
000260 6e 34 18 bf 98 0c 95 bf cc f1 8e 3f 18 bd 9d bd
       -0.59455 -1.1644468 1.116754 -0.077020824
000270 80 7e 18 40 6f 59 dd 3f 80 19 14 be 2f f4 2d 40
       2.382721 1.7292918 -0.14462852 2.7180288
000280 e5 ab f1 3d b5 5c 7e bf 10 8b 1a 3f 23 5f a0 be
       0.118003644 -0.9936021 0.6036844 -0.31322584
000290 e7 f9 b0 be 38 bd 59 bf 41 e7 20 3e 1b 6e 83 bf
       -0.3456566 -0.8505435 0.15713216 -1.0267977
0002a0 31 f8 cc be bc 8f b8 bf 7e 38 0a 3f 95 97 7a bf
       -0.40033105 -1.4418864 0.5399245 -0.97887546
0002b0 9c d2 fe be 6f c8 09 3e f7 80 2c 3f 5f e9 8f be
       -0.49770057 0.13455366 0.67384285 -0.28107736
0002c0 7a 93 53 bf 5e 5f ae 3e ff 59 0c 3f 37 89 b0 bf
       -0.82646906 0.34057134 0.54824823 -1.3791875
0002d0 d1 d3 52 be c5 e7 a4 3f ed 28 3b bf fc fc 0f bf
       -0.20588614 1.288323 -0.7310932 -0.562454
0002e0 f2 25 9d bf be a5 14 3f 99 77 a6 3e 9d d5 a1 3e
       -1.2277205 0.580654 0.3251312 0.31608286
0002f0 ec 04 89 bf 0a 9e e4 bf fc 5c 4e be 7a a9 29 bd
       -1.0704627 -1.786073 -0.20152658 -0.04142139
000300 45 02 91 3f 5c b9 0f bf f6 e7 b2 bf 22 01 4a 3f
       1.1328818 -0.5614221 -1.3977039 0.7890798
000310 c4 ef 11 bf 00 dc c7 3e 57 10 7a 3f a1 ac 87 3f
       -0.5700648 0.39035034 0.9768118 1.0599557
000320 5c 84 ba bf 4d 04 b0 bf b2 ec 4f bf f2 8b 76 bf
       -1.4571643 -1.3751312 -0.81220543 -0.9630729
000330 63 60 7d bd 08 d7 83 3f 20 d5 9e 3d d2 a9 17 3f
       -0.0618595 1.0299997 0.07755494 0.592435
000340 36 1c 5c 3f 52 9e 3e be 65 27 9c bf 05 94 64 bf
       0.85980546 -0.18615082 -1.2199522 -0.8928836
000350 46 ad 83 be 54 de fd 3f df 1d 23 bf 74 a2 ac 3f
       -0.25718135 1.9833474 -0.63717455 1.3487077
000360 16 b5 14 3f 84 f3 34 3f 69 dd 2b 3f f8 32 2a 3f
       0.58088815 0.70684075 0.6713472 0.6648402
000370 af df eb be 8c bb 90 bf b8 0f 89 3f ed 56 47 3e
       -0.46069095 -1.1307235 1.0707922 0.19466753
000380 8b 0b 21 bf e1 b6 d1 3e 0e 22 19 be 7c 89 86 bf
       -0.6290824 0.40959838 -0.14954397 -1.0510707
000390 14 70 81 3e c0 0e c8 bd d3 81 1b bf 7c 34 da 3b
       0.2528082 -0.09768438 -0.6074497 0.0066590887
0003a0 38 56 34 bf 08 69 0f 3e b3 6f 0e be f2 c8 56 bf
       -0.7044406 0.1400491 -0.13909797 -0.8390037
0003b0 63 f6 bf bf f4 00 c0 3e 54 74 42 bd 21 13 98 bf
       -1.4997066 0.37500727 -0.04747422 -1.1880838
0003c0 09 6c 35 bf 33 0c 09 be ff 4d 32 40 2b 17 65 bf
       -0.70867974 -0.1338356 2.7860105 -0.89488477
0003d0 e9 53 a1 3e 16 39 3b 3f b2 98 b5 bf 56 51 40 3f
       0.3150933 0.7313398 -1.4187224 0.7512411
0003e0 f7 32 50 3f 96 d3 93 bf 1e f5 13 bf b4 a3 90 3f
       0.81327766 -1.1548946 -0.57795894 1.1299958
0003f0 b8 37 a7 3e 7d 1e 3e bf 80 96 3d 3e ee a6 35 3e
       0.32659698 -0.7426527 0.18514442 0.1773946
