data/logs/weight_GRU_layer_2_b_ih.npy (npy, 6224 bytes, 1 tensors)

array f4 [1536]
000000 f6 2b af 3d cf 32 9c 3d 3d cf 2d 3d f3 6c 3d 3d
       0.08553307 0.076268785 0.042433966 0.04624648
000010 3d 50 0e 3d ea eb f3 bb ca 32 70 3b 27 36 35 bd
       0.03474449 -0.0074438946 0.0036651366 -0.044241097
000020 e7 85 92 bc 8a e3 c1 3c 84 45 0e 3d cf 61 8e 3c
       -0.017886115 0.02366807 0.034734264 0.017380623
000030 d5 f5 49 bd 22 a5 84 bc 02 f0 18 bd 4d 66 98 3d
       -0.04930671 -0.016192023 -0.037338264 0.07441387
000040 91 7a 1a ba 3c a8 a7 bd 72 45 cc 3c 50 49 8d bb
       -0.00058928976 -0.08186385 0.024935458 -0.004311718
000050 93 f4 9d bc 40 d7 ad 3c 0c c0 0c bc ce cc 9d 3d
       -0.019281661 0.021220803 -0.008590709 0.07705079
000060 41 30 d4 3d e6 8c 2a ba ae 53 f7 3d e5 23 5b 3d
       0.10360766 -0.0006505981 0.120765075 0.05350103
000070 f6 81 75 bd f3 d0 0f bd b0 6b dc bb 66 0e 5a 3c
       -0.059938394 -0.03511138 -0.0067267045 0.013309097
000080 37 c5 54 3d ed 17 b7 3d 3a 90 86 bc d6 7d 88 bd
       0.05194589 0.0894011 -0.016426194 -0.06664626
000090 67 b9 2d bc e3 1e 15 3d e0 17 24 bd f7 56 0b 3d
       -0.010603285 0.03640641 -0.04006183 0.034018483
0000a0 8b 1b 40 bd 30 28 ad bd f0 f3 75 3c 8c 52 8d bd
       -0.046901267 -0.08454931 0.0150117725 -0.0690051
0000b0 13 b1 1a 3d 69 55 b6 3d 26 64 ab 3d bc 72 04 3d
       0.037766527 0.089030094 0.08368711 0.03233598
0000c0 35 43 3f 3d 1d 01 07 3d 6d 81 9f bc 35 26 b6 3d
       0.046694953 0.032960046 -0.019470895 0.08894006
0000d0 85 2a 1f 3d bb a7 0a bd f9 e1 aa 3d 17 ec 3b 3d
       0.03885891 -0.033851366 0.08343882 0.04587945
0000e0 51 f2 56 3c 52 84 ac bd 27 bd a7 3c 4d e2 9b 3b
       0.013119296 -0.084236756 0.020475937 0.0047572018
0000f0 84 7f 85 3d 52 45 48 bc 6a 57 80 3d 8a b8 f5 bc
       0.06518462 -0.0122235585 0.06266673 -0.029995222
000100 2d c5 89 3d 13 7a f1 3a 8c 40 07 3d ed 8c 9a 3c
       0.067270614 0.0018423222 0.03302054 0.018866027
000110 c1 46 0c bb 34 a1 91 3d 4d ea 28 bd 3f a6 96 3c
       -0.0021404477 0.07110825 -0.04123907 0.01838982
000120 8f 8e 0d 3d 6a a3 59 3d 9d 25 c3 bb f7 94 9a bc
       0.034559783 0.05313436 -0.0059554116 -0.01886986
000130 4a 1a b6 bd 63 45 c0 bd c3 b2 1f 3c a6 b9 6a bc
       -0.08891733 -0.093882345 0.00974721 -0.014326489
000140 51 72 8d bd 4f 61 a0 3d 91 21 71 3d ad b0 cc 3d
       -0.0690657 0.0783106 0.058869902 0.09994636
000150 af 9b 85 3d 37 2a fc 3b 02 01 25 bd 21 46 ca bd
       0.06523835 0.007695462 -0.040284164 -0.09876657
000160 7f 53 25 3d d8 b3 84 bd b4 62 0c bd 87 45 97 bd
       0.04036283 -0.06479615 -0.034273818 -0.07386308
000170 5d 05 3a 3d 50 b5 aa 3d c4 c3 13 3e a4 94 a9 3c
       0.04541527 0.08335364 0.14430147 0.02070076
000180 31 02 b9 bc 53 6e 05 ba ad 2d e4 3b 9f ef 3b bb
       -0.022584053 -0.0005089987 0.006963453 -0.002867676
000190 f8 9d b0 bc d8 d6 15 3c 74 da d3 3d 7b d4 9b bb
       -0.0215597 0.009145461 0.10344401 -0.0047555543
0001a0 37 cc bc bc 8c fd fc 3c 03 b4 01 bd f6 e3 1c 37
       -0.023046596 0.03088262 -0.031665813 9.351401e-06
0001b0 c6 2e 9e 3a 16 4c 8d 3b d2 fc cd 3d ff 23 a4 3c
       0.0012068383 0.0043120487 0.10057987 0.020036696
0001c0 25 d6 19 3d df 7c 2c bd 25 31 25 bd 45 eb 0f 3d
       0.03755774 -0.042111274 -0.04033007 0.03513648
0001d0 34 42 1c bc f3 1f 08 3e fe 82 9a 3c ce e8 c4 bc
       -0.009537268 0.13293438 0.01886129 -0.024036791
0001e0 cf 55 f8 bd 1a 0f a8 3c 1d 96 2a 3d 1c 24 ac 3b
       -0.12125742 0.020515013 0.041647065 0.005253328
0001f0 cd d6 98 ba 4f 45 b8 bc c8 37 c9 3c 2f ff 9a 3c
       -0.0011660695 -0.022493986 0.024562731 0.01892051
000200 f6 24 82 3c 55 3c 09 bd 3a c6 c7 bd da 1c d9 3c
       0.015886765 -0.033504803 -0.097546056 0.026503015
000210 2f c1 89 3c f3 31 2e 3c 5d ca 32 bc 4d 0b 3d 3d
       0.01681575 0.010632026 -0.010912505 0.046153355
000220 38 15 25 3d 73 69 a1 bd 73 e8 d5 3c e0 52 3a bd
       0.04030344 -0.07881441 0.026111817 -0.045489192
000230 98 58 a2 3c 27 cc a7 3d 82 3c e3 3c 08 35 43 bd
       0.019817635 0.08193236 0.027738813 -0.047657996
000240 37 be 75 3c 1b 18 58 3d 9a f3 6d 3c eb 77 07 3d
       0.014998964 0.052757364 0.014523411 0.033073347
000250 f5 21 2b 3c e9 d7 eb bb 0a 2f 56 3d 9d c5 dc bd
       0.010445108 -0.0071973694 0.052290954 -0.10779879
000260 ab fd f5 3c 38 98 66 bd d6 93 b9 bd 4e e5 6c bc
       0.030028185 -0.05629751 -0.090614006 -0.014458967
000270 fa 1d b2 3b 0b 3f ee bc c8 ea 23 3d d4 b9 3f 3d
       0.0054357024 -0.029082796 0.040018827 0.04680808
000280 7b b4 ca bc 3a cc 38 3d 8b 7b da bd 82 e1 87 bd
       -0.024744263 0.04511664 -0.10668095 -0.06634809
000290 9f d0 39 bd 47 fa a4 bc ac 77 26 bd f6 45 87 bd
       -0.045364972 -0.020138873 -0.04064147 -0.06605141
0002a0 32 2e 67 3c da f6 66 bd 9f b5 42 3d fc b3 57 3d
       0.014110135 -0.05638776 0.04753649 0.05266188
0002b0 ed f6 6f bc 5d 8a 3e 3c 89 85 2b bd ac 6c c4 bc
       -0.014646274 0.011629668 -0.041875396 -0.0239776
0002c0 35 2c ba 3c 1d b4 5e 3b 62 b0 3c 3c 18 c8 b8 3d
       0.022726158 0.0033981868 0.011516662 0.0902254
0002d0 10 b1 f5 3c f3 93 f4 3c ff 64 db bc c7 25 54 3c
       0.029991657 0.029855704 -0.026781557 0.01294846
0002e0 fc 73 cb 3c 6c f9 ac bd f6 4a ae bb 45 9c d0 3b
       0.02483558 -0.08446011 -0.0053189946 0.006366285
0002f0 04 a9 ab bb 4f 53 46 bb 39 e9 04 bd b3 9c 88 b8
       -0.005238654 -0.0030262058 -0.03244898 -6.514173e-05
000300 29 67 9a bd b1 55 31 3d f5 f3 58 bc c8 fb 1e bd
       -0.075392075 0.043294612 -0.013241758 -0.038814336
000310 f7 3f 0a 3d ff de ae 3d 97 b6 c4 bb 30 b7 44 bd
       0.033752408 0.08538627 -0.0060032117 -0.048026264
000320 53 f1 70 3d 85 26 0c bd b8 a6 4b 3d a4 ce c2 3c
       0.058823895 -0.034216423 0.049719542 0.023780175
000330 58 14 a0 3c 2f 3c 94 bc bf ff 38 3c d4 c6 bd bd
       0.01954095 -0.018095104 0.011291443 -0.09266439
000340 05 3f 9f 3c 1d e2 d5 3c 6c 1c 59 bd e5 ed 56 bd
       0.01943923 0.026108796 -0.05300562 -0.052472968
000350 d1 17 37 3d 56 ee 1d bd 0c 38 2c 3c 1b 73 f7 bc
       0.044700447 -0.038557373 0.0105114095 -0.030206254
000360 cf a2 af 3d de 9e da 3d 2d 69 45 3d f3 4b f5 3c
       0.08575975 0.10674833 0.048196007 0.029943442
000370 1d 28 41 bd e1 2f 24 3d 48 01 70 bc 71 f8 ed 3c
       -0.047157396 0.040084723 -0.014648743 0.02904913
000380 69 fd 87 bd c4 02 78 3c 4a fb 15 3c 1b f5 ad bb
       -0.06640131 0.015137378 0.00915415 -0.00530876
000390 4f 1c 46 3d e2 ff 43 bd 76 55 d3 3c 04 11 10 bd
       0.04836684 -0.04785145 0.025797587 -0.035172477
0003a0 b8 5f 0e bd 11 ea c7 3d 5c 27 7e 3d 4a 5c 8e 3d
       -0.034759253 0.097614415 0.062049255 0.069511965
0003b0 cb a1 9f 3d dd 57 c9 bd b8 0a b6 3d 2b c0 20 3d
       0.077945314 -0.09831212 0.08888763 0.039245766
0003c0 a2 f0 ce bd 38 a0 81 3c 3a 58 a1 3d 0c b0 47 bd
       -0.10104491 0.015823469 0.07878156 -0.048751876
0003d0 06 49 96 bc 4d 47 ea 3c 36 da 28 3d 28 8d 61 bc
       -0.018345367 0.028598452 0.041223727 -0.013766564
0003e0 91 85 ab 3d 98 44 2a bd dc fe 9a 3b 7a 52 c7 3c
       0.08375085 -0.041569322 0.0047300886 0.02433132
0003f0 cf d8 03 3d 20 4e bf 3d f1 a3 88 bd b3 f5 bc 3c
       0.032189187 0.09341073 -0.06671894 0.023066377
