data/logs/weight_GRU_layer_2_w_hh.npy (npy, 32848 bytes, 1 tensors)

array f4 [16, 512]
000000 a5 29 de bc 93 04 47 3b 10 c6 92 bd 86 d6 db bd
       -0.027119467 0.0030367717 -0.07166684 -0.107342765
000010 f9 5b 88 3d f4 98 23 3e 70 de 41 bd e9 b0 02 be
       0.066581674 0.15976316 -0.047331274 -0.12762798
000020 86 27 46 be 12 d7 90 3c 11 11 4b bc 50 cf a4 bc
       -0.19351014 0.017680679 -0.012394206 -0.020118386
000030 01 8e 22 3e 8e 78 8d 3e 75 77 f3 bb 1f 6b 1b 3e
       0.15874483 0.27631038 -0.007430012 0.15177582
000040 cc 0a ec 3c a3 04 cf bd a0 ba 44 be e4 3d 94 3d
       0.028813742 -0.10108306 -0.19211817 0.07238367
000050 1f c9 0b bb 88 3a 97 bc f7 8e 3e be 5b 78 e2 bd
       -0.0021329594 -0.018460527 -0.18609224 -0.11058112
000060 96 02 11 3d 7b ee 1a be ac d9 99 3d 52 80 82 be
       0.035402857 -0.15130036 0.07512221 -0.25488526
000070 44 c4 c7 bc e3 43 51 bd 17 0a fe bd b6 96 38 be
       -0.024385579 -0.051090132 -0.12404268 -0.18026242
000080 00 3b 10 bd 09 f1 e5 bd e1 3b 84 3d 97 c4 01 bb
       -0.035212517 -0.112276144 0.064567335 -0.0019801015
000090 ba d0 ea 3b c9 89 67 3d 17 e1 c1 3d 04 4b f8 3c
       0.0071659954 0.056527887 0.094667606 0.030309208
0000a0 bf 80 94 3d fa f9 d6 3c e9 93 64 bd 21 e1 8a be
       0.07251119 0.026242245 -0.05580512 -0.27124885
0000b0 d9 96 60 be 19 89 04 3e 3b 39 1f bd 5c 7b 7e be
       -0.21932544 0.12942924 -0.03887294 -0.24851745
0000c0 0a 48 06 b8 f9 3e d5 bd e2 6e 3a bc 88 4a 19 3e
       -3.201518e-05 -0.10412402 -0.011378976 0.14969838
0000d0 87 46 b6 bc 77 2f ff bd c6 7d bd bd ca 90 1e 3d
       -0.022250427 -0.12460225 -0.09252505 0.0387123
0000e0 89 ef b4 3d a9 48 e6 3b 8d 56 15 3e 24 5e 2d bb
       0.0883475 0.0070277047 0.14583798 -0.0026453817
0000f0 b5 77 7c bc e7 1a 6f be ea 07 19 3e 7b 5c 6d bd
       -0.0154094 -0.23350106 0.14944425 -0.057949524
000100 95 50 c4 bd d7 f9 0e 3d 54 cd 68 3c 3e 07 b6 3d
       -0.09585682 0.034906235 0.01420911 0.088881
000110 5e 9e 0f be 5c e8 7b 3d 40 e3 55 bc 4c db 62 3d
       -0.14025256 0.061500892 -0.013054669 0.05538492
000120 da 98 23 be 08 c9 42 3d a9 43 ec bc 73 d8 e3 bc
       -0.15976277 0.047555 -0.028840857 -0.027813172
000130 24 67 6e 3d 54 83 c2 bd db 78 c8 bb 45 8e 46 3e
       0.05820383 -0.09497705 -0.0061179227 0.19390209
000140 64 08 9c bd c5 3f 52 3d 6c 80 38 bd 11 d9 8a 3c
       -0.07618788 0.051330347 -0.045044348 0.016949208
000150 fe 60 d6 bd e8 51 0c 3e 1b e1 52 bd f8 d4 00 3e
       -0.104677185 0.1370312 -0.05148421 0.12581241
000160 b2 ad da bc b5 69 26 3e b0 d5 c5 bd b3 92 ae 3d
       -0.026694153 0.16251262 -0.09659898 0.085240744
000170 11 67 60 bc b8 5b dc 3d 77 bf 1b bd 9d d8 32 3d
       -0.013696448 0.107596815 -0.038024392 0.04366361
000180 5a 63 54 3c 1c 4f 0c be 23 91 67 bc 99 4c 06 bd
       0.01296314 -0.13702053 -0.014133724 -0.032787893
000190 d0 cc 04 be 1c 78 2e 3d f7 e0 88 be 26 46 9c bd
       -0.12968755 0.042595014 -0.26734135 -0.07630567
0001a0 85 b7 b2 3d 65 9d ef 3c e3 71 a5 bd b6 d1 03 be
       0.0872641 0.029249856 -0.08078363 -0.12872967
0001b0 53 24 8f 3e 82 c5 da bd 61 bc 98 3d 70 43 02 3e
       0.279574 -0.10682203 0.074578054 0.12721038
0001c0 7a cd 0f 3e c3 79 ea bc 8b 14 9e 3c 9c bc c9 bd
       0.14043227 -0.028622514 0.019296905 -0.098504275
0001d0 6d ab 65 be 21 11 83 3e ac dd b6 3d 1d 11 da be
       -0.22428675 0.25599006 0.08928999 -0.4259118
0001e0 54 cb e1 3c 9f 99 69 3e 2e d2 9b bc d4 cf 43 3d
       0.027562775 0.22812508 -0.01902112 0.047805622
0001f0 96 e8 78 3e be 77 8e 3e 94 84 72 bc ba 5e 64 3d
       0.24307474 0.2782573 -0.014802117 0.0557544
000200 a8 36 17 be e7 f7 0a bd 86 9d 57 bc 21 10 d0 3d
       -0.14766943 -0.033927824 -0.013160115 0.10159326
000210 07 8e 84 bd 99 8d 4d be 9c c3 a2 3c 7f 7f 03 be
       -0.06472402 -0.20073546 0.019868664 -0.12841605
000220 71 cd c4 3b f0 f0 1d 3d 3a 9c 78 bd a0 56 43 bc
       0.006005936 0.038559854 -0.060695864 -0.0119225085
000230 a1 5a 8d 3d 57 ce 7a 3c 16 e4 0c 3d c2 2f 0a bd
       0.06902052 0.015307984 0.034397207 -0.03373695
000240 27 10 e2 bd 1d e5 d0 bd fd 94 05 3e 2a 8e b4 3c
       -0.11038237 -0.1019995 0.13045116 0.022040445
000250 09 39 03 3b 24 c3 8d bc c9 7d 05 3e f2 29 a7 bd
       0.002002301 -0.017304964 0.13036264 -0.08162297
000260 28 7e af bd 30 62 65 be 90 12 2a bd ca 44 39 3d
       -0.08568984 -0.22400737 -0.04152161 0.045231618
000270 c7 c3 16 be c7 a7 b6 bd e8 06 14 be 61 ca 7f 3d
       -0.1472312 -0.0891872 -0.1445576 0.062448863
000280 e2 03 4f 3c 25 88 2d 3d fb 62 89 bd da ed c8 bc
       0.012635203 0.042366166 -0.06708332 -0.024527479
000290 1e 11 9c bc bc 19 1f be d4 3f 3e be cd 2d d2 3d
       -0.01905113 -0.1553716 -0.18579036 0.10262642
0002a0 09 d7 85 bc f7 a1 3f 3e 82 99 86 3d 81 b8 ed bc
       -0.016337888 0.18714128 0.06572248 -0.029018642
0002b0 ff 0b 1c 3d b4 24 8d bd ed 05 e2 bd 65 eb 20 3e
       0.038097378 -0.06891766 -0.110362865 0.15714796
0002c0 0b ae 82 3d da bf 8c be f3 37 8a 3d 88 c1 46 3a
       0.06380852 -0.2749012 0.06748953 0.0007581939
0002d0 d5 5a cb 3d aa f9 3c 3e 73 ae c6 bc bd 89 2a 3e
       0.09929434 0.18454614 -0.024253106 0.16654105
0002e0 6f 36 2e 3d 1d d3 b3 3d ad cc 8e 3e 07 f5 3e be
       0.04253238 0.08780501 0.2789053 -0.18648158
0002f0 a7 58 46 bd 65 85 83 3c aa 94 13 3d 82 63 0d be
       -0.04842439 0.016054818 0.03603045 -0.1380749
000300 56 a1 ac bd b6 52 f1 3d 3c 53 45 bd 06 7c 65 3e
       -0.0842921 0.11783354 -0.04817508 0.22410592
000310 48 41 00 3e 64 58 d3 bc 7c bd 7d bb eb d0 9e bc
       0.12524903 -0.025798984 -0.0038717678 -0.01938673
000320 eb ae 7f bc 8d 10 69 bd 44 f5 2c 3e e3 a6 3f 3e
       -0.015605669 -0.05690055 0.16890436 0.18716006
000330 a9 90 ff 3c 6a b2 5d 3c 2e 47 b5 bd 53 93 dc 3d
       0.031196909 0.013531307 -0.08851467 0.10770287
000340 f7 45 9f 3d 01 3d 9f bc d3 3a f4 3c f6 74 0f 3d
       0.077770166 -0.019438269 0.029813206 0.035023652
000350 1c d5 e3 3d 74 0f 2c 3e 06 77 72 bd e5 42 f3 bd
       0.11124632 0.1680277 -0.05919554 -0.118779935
000360 96 5e b0 3d b1 ad d6 bd 81 77 79 bd e5 4b cc 3c
       0.08611791 -0.10482348 -0.060904983 0.024938533
000370 27 51 34 be ee 8c e0 bd 81 5a 08 be ac bf 7c 3e
       -0.17609082 -0.1096438 -0.13315775 0.24682492
000380 50 54 12 3e 3d 08 94 3c d3 d2 74 be 8f cf 05 3e
       0.14289975 0.018070335 -0.23908548 0.13067459
000390 e6 e2 80 be 14 61 a7 bd cb e2 e1 bc f8 cf 0e 3e
       -0.2517311 -0.08172813 -0.027573964 0.13946521
0003a0 cf 63 44 be 25 b0 66 bc 86 86 9f 3b 67 c2 f2 3d
       -0.19178699 -0.014080082 0.0048683314 0.118534856
0003b0 00 7c 1d 3d 3b 98 57 3c c6 c4 8a bc 18 e1 77 3c
       0.038448334 0.013158853 -0.016939532 0.01512935
0003c0 15 90 a2 bc 7b 20 27 be d8 0f ad bd 0d 81 3c be
       -0.019844094 -0.16320984 -0.084502876 -0.18408604
0003d0 90 c4 1a 3d b0 52 3d 3d 0f 63 0a 3e 4d 6f 09 bd
       0.037785113 0.046221435 0.1351435 -0.03355341
0003e0 b1 58 41 3d c1 47 d6 bd 65 c0 9d 3e a9 a1 b5 bd
       0.047203723 -0.10462905 0.30810848 -0.08868725
0003f0 42 7d 8a 3d df 9c 35 be ca 0d cc bd 87 0d eb 3d
       0.06762172 -0.17735623 -0.099635676 0.114771895
