data/logs/weight_GRU_layer_2_b_hh.npy (npy, 6224 bytes, 1 tensors)

array f4 [1536]
00000000: 489e 293d 4ab1 da3c 9779 2cbc bf2f 773d
00000010: 0b50 963d bbf0 da3c 48a4 2bb9 253c 88bd
00000020: e01a cabb 34f5 953d a8d0 273c f87b a13d
00000030: d632 45bd 63ab 593b 8dae 393c 57d1 103d
00000040: 7df3 28bb c018 02bd b082 993c 1f6a bf3c
00000050: 8ed1 0fbc ffe1 04bc 8b08 c9bb b6f9 dd3d
00000060: 25ff b93d cac4 7abd 156a de3d 0016 033e
00000070: 3a5d 80bd 5c25 423c f4e3 b6b9 f347 85bb
00000080: 76e8 073d f43a 9c3d 1321 173d 2380 c13a
00000090: d0c4 18bd 21ad b33d 41e5 5dbd ae8b 823d
000000a0: 5e7d 6dbc 59e6 d3bd 2ec4 56bc 4781 943b
000000b0: e0e7 743a a77f 643d 4285 ca3d 4145 88bc
000000c0: 95d3 113d 0b01 6d3d e3e0 abbc 8726 d63d
000000d0: bdd2 47bc 78a4 15bd dadf 123c c81a 933d
000000e0: 55be 523d 887c a9bd 591a 10bd 826c aabc
000000f0: 93dc aa3b afae f43c d92a 0e3d 9989 11bd
00000100: 8dc5 bc3d e14a 0ebd 8af7 163a 54cb 793d
00000110: d08d 20bd ba67 293d 59ed 25bc 0e6d a23d
00000120: ce63 a73c 99aa ff3d 47d2 2d3d 9a30 e43c
00000130: a8f7 9dbd a508 cabd 7ea1 8e3d 3e17 efbc
00000140: 4e41 e7bc e8d3 df3c 30a9 4e3d a26d 7f3d
00000150: 80db 29ba 253a 273c 4e7d 8ebd cf8b 02be
00000160: cbd0 c13d a3cb c6bd 9703 6abd 52a6 33bd
00000170: 3c71 ae3d 068f 573d c3d0 ef3d 02eb 1cbd
00000180: 8243 603d a0cc c63c 2f8d e6b9 6dba 713d
00000190: 0c03 a9bc ff55 7ebb ea55 273d 9356 c5bc
000001a0: 2692 73bd 2502 fbba b31c d9bc 263d 913c
000001b0: fb2d 8c3d 8478 f13c 2105 9e3d c1f5 163c
000001c0: ddc7 efbc 407d 63bd 34c5 debc 2010 8d3d
000001d0: a8af fe3c 2616 213e 610f 20bd 5ff7 0b3d
000001e0: 7302 6abd ea98 acbc 639e 153b e7bd 483d
000001f0: 8fa5 f1ba 872b 36bd 8a90 ed3c e698 833b
00000200: 15f3 5abd bce6 b6bc c082 63bd 080e 83bc
00000210: 4978 e03c bea7 85bc ad17 20bc 9fab 813d
00000220: d79e c93d 709f 8ebd 8967 1abc af9d 4e3c
00000230: e873 443c d34f 953c 4547 f53c 0410 b1bc
00000240: b1be 7c3c 1a29 e23d 51ba 5f3d f505 4b3d
00000250: d05a a93c 8b2e bd3b 9219 223d 1504 efbd
00000260: d811 8b3d 264b 5bbd 0c07 c3bd 50f8 5cbd
00000270: 3685 42bb 4627 ecbc 2810 023d d60e 983d
00000280: 1e84 72bd 6ef0 da3b ee9f 29bd fcc0 74bd
00000290: 5e2c 14bc f301 d139 16a5 abbc c624 743c
000002a0: fecb c2bc 8515 72bd e737 fc3c d6af 943d
000002b0: 202c 77bc c4fd 433d 0afd b63a 635f 2bbc
000002c0: 7d2c 0f3d fdad 543b 15d8 253d ec09 fa3c
000002d0: 93c2 10bd d9ba cf3c cba3 983c b0eb bc3c
000002e0: 945c a63d 590b 55bd d90c 163d 18c1 503c
000002f0: 0c52 153d 9e8a 223d e540 87bd 8cf6 603d
00000300: 070c 6cbc 238c 6c3d 9c9a 4fbd 925e 1fbd
00000310: 51c3 76bc bbca 3a3c d6ec 843d 985d 37bd
00000320: d99a 633d 87c8 51bc 2cff 203d dfb2 993c
00000330: e433 1d3d 2c45 b0bc 42d5 a2bc 7e59 58bd
00000340: ecad be3b d8c8 753d 2909 9abc 1033 943c
00000350: 3121 373d 0a6d 50bc 1254 2d3d c21e a9bb
00000360: 2de8 9a3d 1a1d d93d 06e0 a93b da9a 42bc
00000370: 1d84 ddbc 15e7 5e3d 61ce ee3c 8036 d8bc
00000380: 33a0 54bd 28f9 03bc a28f 493c 3d50 3d3d
00000390: f716 2a3d 723c 11bd 9ae3 afba a279 12bd
000003a0: 1d1f 26bd deda 473d 18b1 7a3c 6b89 f83c
000003b0: 8693 843d 83a5 4cbd 2e40 e43d b4ad 5a3b
000003c0: ef6d 14bd 140c e23c 0212 cd3d 0ad1 d1bc
000003d0: 4f53 40bc 4dce 5fbd acfd 573d cb3f 9ebc
000003e0: 9fcd 6a3d 1c7d cd3b fce7 1e3c d169 5ebd
000003f0: 447c 1bbd ad6d 873d 4720 a3bb e7bf c43c
0.041410714 0.026695866 -0.010527036 0.06034827 0.07339486 0.026726117 -0.0001636903 -0.06652097
-0.0061677545 0.073221594 0.010242619 0.07884973 -0.048144184 0.0033213727 0.01133312 0.035355892
-0.0025779896 -0.031761885 0.018739074 0.023366032 -0.008777989 -0.008110522 -0.0061350516 0.10838644
0.09081868 -0.06122283 0.10860077 0.12801361 -0.062677816 0.0118497275 -0.00034883583 -0.004067415
0.033180676 0.07628432 0.036896776 0.0014762919 -0.03729707 0.08773256 -0.05417371 0.06374298
-0.014495222 -0.1034667 -0.013108296 0.0045320126 0.00093424134 0.0557858 0.09888698 -0.016634585
0.03560217 0.057862323 -0.020981258 0.10456567 -0.01219624 -0.036533803 0.008964503 0.071828425
0.051451046 -0.082757056 -0.035181377 -0.020803694 0.005214283 0.029868452 0.03470883 -0.035531614
0.09217367 -0.03473938 0.0005758932 0.060984924 -0.039197743 0.041358687 -0.010127389 0.07930957
0.020433333 0.12483711 0.042436864 0.027855206 -0.07713252 -0.0986493 0.06964396 -0.029185887
-0.028229382 0.027322724 0.05045432 0.062360413 -0.00064795464 0.010206734 -0.06957494 -0.12748645
0.09463652 -0.09706809 -0.05713233 -0.043859787 0.085176915 0.052626632 0.1170974 -0.03831006
0.05475188 0.024267495 -0.00043974209 0.05901568 -0.020631336 -0.0038808582 0.04085342 -0.024089133
-0.05946555 -0.0019150419 -0.026502943 0.017729353 0.068447076 0.029476412 0.07715822 0.009213866
-0.029270107 -0.05553937 -0.027193643 0.06887841 0.031089619 0.15731105 -0.039077166 0.03417146
-0.057131242 -0.021069009 0.0022830002 0.04900923 -0.0018436181 -0.044475105 0.028999586 0.0040160296
-0.053454477 -0.02232682 -0.055544615 -0.015997902 0.027401106 -0.016315337 -0.00977127 0.06331562
0.098447494 -0.06964004 -0.009424099 0.012610837 0.011990525 0.01822654 0.02994121 -0.021614082
0.015426324 0.11042996 0.054621045 0.049566228 0.020673186 0.0057733706 0.039575167 -0.116707005
0.06790513 -0.053538464 -0.095228285 -0.053947747 -0.002968145 -0.02882732 0.03175369 0.07424705
-0.059208028 0.0066814935 -0.041412286 -0.059754357 -0.009043781 0.0003986504 -0.020952743 0.014901346
-0.023778912 -0.059102554 0.030788375 0.072601005 -0.015086204 0.04784943 0.001396091 -0.010459754
0.034954537 0.0032452338 0.040489275 0.03052231 -0.03534181 0.02535765 0.01863279 0.023061603
0.081231266 -0.052012775 0.036633346 0.01274135 0.0364552 0.039682977 -0.066041745 0.054922625
-0.014407164 0.057750832 -0.050684556 -0.03890855 -0.0150612155 0.011400874 0.06490485 -0.044766992
0.055567596 -0.012804157 0.03930585 0.01876205 0.038379565 -0.021517359 -0.01987708 -0.05281972
0.005819073 0.060005993 -0.018803196 0.018090755 0.04470939 -0.012721309 0.042316504 -0.0051611373
0.07563815 0.10601254 0.0051841764 -0.01187774 -0.027040536 0.054419596 0.029151144 -0.026393175
-0.05191059 -0.008055009 0.012302311 0.0462191 0.041525807 -0.035458036 -0.0013419271 -0.03576053
-0.040557016 0.048792712 0.0153010115 0.030338963 0.0647345 -0.04996253 0.11145054 0.0033367695
-0.036237653 0.02759365 0.100132 -0.025612373 -0.011738612 -0.054640103 0.052732155 -0.019317528
0.057325 0.0062710177 0.009698864 -0.054300133 -0.037960306 0.06612716 -0.004978213 0.024017287
