data/logs/weight_GRU_layer_2_w_ih.npy (npy, 32848 bytes, 1 tensors)

array f4 [16, 512]
-0.073533684 -0.08830843 0.03636087 0.0043848576 -0.119504936 -0.20251955 -0.057242833 0.06385474
0.020541409 -0.025352037 -0.15021804 -0.07656069 0.038963128 -0.21942183 0.05147128 -0.030884031
-0.018887576 -0.18133014 0.028053973 -0.10328328 0.039378587 0.16631447 0.17201956 -0.11181567
0.2498316 -0.0934113 -0.08368238 -0.10303125 -0.07281015 0.0048839087 0.100679316 0.021633215
-0.054845367 0.08084581 -0.016710935 0.31053877 -0.0028002874 0.29253048 0.04358767 -0.033019233
0.1124828 0.2850069 0.13817608 0.068540595 0.039368883 0.03770702 0.070440315 -0.009931773
-0.09320973 0.060292747 -0.04451734 0.009053093 -0.14960629 -0.0032556795 -0.043818764 0.10366196
-0.025707066 -0.11036187 0.13103521 0.02999102 0.10879179 0.0146358255 -0.09033718 0.13404733
-0.008744846 0.08999133 0.0855108 0.10069598 -0.045217533 -0.08040683 0.09494633 -0.02038874
0.031145949 -0.08336438 -0.021565726 0.11381714 0.024997924 0.04217397 -0.07075935 -0.09966627
0.0016419177 0.019016339 0.13539201 0.022228362 0.1310777 0.063396916 0.18781729 0.050605897
-0.026098207 -0.1700864 0.16732909 0.18842748 0.032670893 0.008141877 0.22963485 0.14645283
-0.077225074 0.09527018 0.1879702 0.19815797 0.020326562 0.010481595 0.17696899 0.047799967
0.0011999719 -0.073535286 5.006742e-05 0.01251248 0.006774644 -0.16343014 -0.11441341 0.14367744
0.14198339 -0.025462685 0.09517417 0.0057805353 0.14960304 -0.0583288 -0.013530842 0.026642784
-0.09948884 -0.01045112 0.10271351 -0.1185663 -0.049548633 0.01493502 -0.08683387 -0.092472166
-0.1649667 0.027284976 -0.15804328 0.09022685 0.26184553 0.06758572 0.14298667 -0.008837349
-0.0172052 -0.15530092 0.22535029 -0.0095976265 0.024566919 0.111177616 0.10258252 0.08879977
0.06504116 -0.0025615704 -0.25313526 -0.023879493 -0.19377281 0.17862774 -0.11360633 0.022284387
-0.048594583 0.08371056 -0.18552282 0.13692977 -0.03986392 0.08200256 0.16062234 0.000972753
-0.023233607 -0.1293627 -0.038681414 0.06504908 -0.10722789 0.04170414 -0.124910444 0.14618154
-0.026703779 -0.11725939 -0.015141056 0.028528059 0.10287209 -0.17175338 0.18449727 -0.18929987
-0.006171659 -0.053074516 0.094109036 -0.1183877 -0.06873533 -0.20801963 -0.0757302 0.18083987
-0.13572736 -0.023161666 0.09235021 -0.22419809 0.06351187 0.06415594 0.15121643 -0.038399793
0.11923529 0.00529242 0.10793352 -0.055341106 0.07056151 -0.05795801 -0.033204976 0.012252188
0.12473074 0.22315075 0.2602311 0.03442572 0.04333504 0.119325645 0.037837982 0.07939844
0.043189332 0.06356666 -0.23732492 0.07846325 -0.05124768 0.009110975 0.110673785 -0.060685977
0.021118121 -0.08164899 -0.03804286 -0.20623477 0.10522251 -0.048446435 -0.018486835 -0.10559341
-0.022891274 0.053451132 0.25146598 0.04524952 0.013552954 0.20331107 -0.17627667 0.00088347803
-0.10764936 0.12838855 0.06974233 0.22087495 -0.024714619 -0.09394971 0.018555367 0.061079927
-0.097255126 0.04061259 0.009701541 -0.047981292 -0.114566065 0.022787258 0.076757796 -0.15885867
0.092366524 0.0029624458 0.050676465 0.1238404 0.06270354 -0.010619113 -0.09799153 0.018832166
00000000: d498 96bd 0ddb b4bd 23ef 143d daae 8f3b
00000010: 01bf f4bd 4961 4fbe 7677 6abd 46c6 823d
00000020: 7546 a83c 13af cfbc c2d2 19be dacb 9cbd
00000030: cd97 1f3d 1eb0 60be 8dd3 523d 8200 fdbc
00000040: 1eba 9abc 9cae 39be 72d1 e53c 2f86 d3bd
00000050: 714b 213d 574e 2a3e e525 303e 9dff e4bd
00000060: dbd3 7f3e 6c4e bfbd ab61 abbd 0c02 d3bd
00000070: 7d1d 95bd 3209 a03b f530 ce3d 2438 b13c
00000080: 89a5 60bd 7d92 a53d 5fe5 88bc f0fe 9e3e
00000090: 0785 37bb 8ec6 953e fc88 323d 2d3f 07bd
000000a0: 625d e63d 6dec 913e 087e 0d3e 035f 8c3d
000000b0: 4441 213d ad72 1a3d 0343 903d e0b8 22bc
000000c0: bee4 bebd 87f5 763d d057 36bd 6d53 143c
000000d0: 6432 19be 3d5d 55bb 4e7b 33bd b94c d43d
000000e0: a097 d2bc 6705 e2bd 182e 063e baaf f53c
000000f0: 3bce de3d 1acb 6f3c b302 b9bd b443 093e
00000100: 8b46 0fbc 604d b83d 4920 af3d b239 ce3d
00000110: 0536 39bd 56ac a4bd 3973 c23d 4906 a7bc
00000120: ca25 ff3c f2ba aabd 9baa b0bc f618 e93d
00000130: 72c8 cc3c 9dbe 2c3d 47ea 90bd d41d ccbd
00000140: 9e35 d73a 27c8 9b3c 34a4 0a3e 4118 b63c
00000150: 3c39 063e 3ed6 813d 2d53 403e 2148 4f3d
00000160: e8cb d5bc 212b 2ebe 5158 2b3e 22f3 403e
00000170: ead1 053d 8265 053c 6625 6b3e bbf7 153e
00000180: 2e28 9ebd 031d c33d 437b 403e ece9 4a3e
00000190: e483 a63c ffba 2b3c 5c37 353e e6c9 433d
000001a0: 6048 9d3a ab99 96bd 7cff 5138 2501 4d3c
000001b0: d5fd dd3b 3b5a 27be 9451 eabd 2e20 133e
000001c0: 1864 113e 1f97 d0bc adea c23d a56a bd3b
000001d0: 8a31 193e 2eea 6ebd 77b0 5dbc f841 da3c
000001e0: cec0 cbbd 2d3b 2bbc 765b d23d e3d2 f2bd
000001f0: 82f3 4abd 04b2 743c f5d5 b1bd 0c62 bdbd
00000200: 08ed 28be be84 df3c 19d6 21be dbc8 b83d
00000210: 9e10 863e 626a 8a3d 196b 123e 87ca 10bc
00000220: ebf1 8cbc 3407 1fbe 3ac2 663e 5d3f 1dbc
00000230: 9040 c93c 17b1 e33d c916 d23d a7dc b53d
00000240: 4d34 853d 05e0 27bb f29a 81be ed9e c3bc
00000250: 616c 46be 31ea 363e 6faa e8bd bf8d b63c
00000260: 1d0b 47bd 7170 ab3d b2f9 3dbe 5137 0c3e
00000270: 5a48 23bd f5f0 a73d 2f7a 243e 5900 7f3a
00000280: 6854 bebc a877 04be 6770 1ebd 7438 853d
00000290: 4c9a dbbd f6d1 2a3d 0cd1 ffbd 9db0 153e
000002a0: e2c1 dabc b125 f0bd 3112 78bc adb3 e93c
000002b0: 9aae d23d 1ee0 2fbe daec 3c3e d3d7 41be
000002c0: a13b cabb aa64 59bd 3dbc c03d 4075 f2bd
000002d0: 1cc5 8cbd 1903 55be 6f18 9bbd 162e 393e
000002e0: 1dfc 0abe 89bd bdbc 1b22 bd3d 2f94 65be
000002f0: 8312 823d 3164 833d 7bd8 1a3e 1a49 1dbd
00000300: a231 f43d 096c ad3b 400c dd3d 5bad 62bd
00000310: 8e82 903d 6165 6dbd f101 08bd 67bd 483c
00000320: d572 ff3d a181 643e 033d 853e fc01 0d3d
00000330: 1580 313d 0161 f43d 00fc 1a3d a69b a23d
00000340: 4ce7 303d 3d2f 823d 4e05 73be 57b1 a03d
00000350: 16e9 51bd 3346 153c f0a8 e23d dc91 78bd
00000360: e9ff ac3c 9637 a7bd d4d2 1bbd 352f 53be
00000370: e67e d73d c56f 46bd b471 97bc 5c41 d8bd
00000380: 7b86 bbbc 93ef 5a3d 26c0 803e 9057 393d
00000390: 360d 5e3c c730 503e df81 34be 3599 673a
000003a0: 4577 dcbd 4a78 033e 11d5 8e3d 0b2d 623e
000003b0: 5076 cabc b568 c0bd 6d01 983c f22e 7a3d
000003c0: b22d c7bd 6359 263d 36f3 1e3c 0888 44bd
000003d0: 9da1 eabd 58ac ba3c 3133 9d3d d9ab 22be
000003e0: a92a bd3d 9825 423b 2092 4f3d 09a0 fd3d
000003f0: b76a 803d cafb 2dbc c9af c8bd ea45 9a3c
